<?xml version="1.0" ?>
<net batch="1" name="frozen_model" version="5">
	<layers>
		<layer id="0" name="input1" precision="FP32" type="Input">
			<output>
				<port id="0">
					<dim>400</dim>
					<dim>300</dim>
				</port>
			</output>
		</layer>
		<layer id="1" name="Reshape/shape/Output_0/Data__const" precision="FP32" type="Const">
			<output>
				<port id="1">
					<dim>4</dim>
				</port>
			</output>
			<blobs>
				<custom offset="0" size="16"/>
			</blobs>
		</layer>
		<layer id="2" name="Reshape" precision="FP32" type="Reshape">
			<input>
				<port id="0">
					<dim>400</dim>
					<dim>300</dim>
				</port>
				<port id="1">
					<dim>4</dim>
				</port>
			</input>
			<output>
				<port id="2">
					<dim>400</dim>
					<dim>1</dim>
					<dim>1</dim>
					<dim>300</dim>
				</port>
			</output>
		</layer>
		<layer id="3" name="res_layer1/branch1/conv1/conv1" precision="FP32" type="Convolution">
			<data auto_pad="same_upper" dilations="1,1" group="1" kernel="1,1" output="256" pads_begin="0,0" pads_end="0,0" strides="1,1"/>
			<input>
				<port id="0">
					<dim>400</dim>
					<dim>1</dim>
					<dim>1</dim>
					<dim>300</dim>
				</port>
			</input>
			<output>
				<port id="2">
					<dim>400</dim>
					<dim>256</dim>
					<dim>1</dim>
					<dim>300</dim>
				</port>
			</output>
			<blobs>
				<weights offset="16" size="1024"/>
			</blobs>
		</layer>
		<layer id="4" name="res_layer1/branch1/conv1_bn/conv1_bn_moments/mean" precision="FP32" type="Pooling">
			<data exclude-pad="true" kernel="400,1,300" pads_begin="0,0,0" pads_end="0,0,0" pool-method="avg" rounding-type="ceil" strides="1,1,1"/>
			<input>
				<port id="0">
					<dim>400</dim>
					<dim>256</dim>
					<dim>1</dim>
					<dim>300</dim>
				</port>
			</input>
			<output>
				<port id="1">
					<dim>1</dim>
					<dim>256</dim>
					<dim>1</dim>
					<dim>1</dim>
				</port>
			</output>
		</layer>
		<layer id="5" name="res_layer1/branch1/conv1_bn/conv1_bn_moments/SquaredDifference/negate_" precision="FP32" type="Power">
			<data power="1" scale="-1" shift="0"/>
			<input>
				<port id="0">
					<dim>1</dim>
					<dim>256</dim>
					<dim>1</dim>
					<dim>1</dim>
				</port>
			</input>
			<output>
				<port id="1">
					<dim>1</dim>
					<dim>256</dim>
					<dim>1</dim>
					<dim>1</dim>
				</port>
			</output>
		</layer>
		<layer id="6" name="res_layer1/branch1/conv1_bn/conv1_bn_moments/SquaredDifference/add_/Broadcast/" precision="FP32" type="Tile">
			<data axis="0" tiles="400"/>
			<input>
				<port id="0">
					<dim>1</dim>
					<dim>256</dim>
					<dim>1</dim>
					<dim>1</dim>
				</port>
			</input>
			<output>
				<port id="1">
					<dim>400</dim>
					<dim>256</dim>
					<dim>1</dim>
					<dim>1</dim>
				</port>
			</output>
		</layer>
		<layer id="7" name="res_layer1/branch1/conv1_bn/conv1_bn_moments/SquaredDifference/add_/Broadcast/2691" precision="FP32" type="Tile">
			<data axis="3" tiles="300"/>
			<input>
				<port id="0">
					<dim>400</dim>
					<dim>256</dim>
					<dim>1</dim>
					<dim>1</dim>
				</port>
			</input>
			<output>
				<port id="1">
					<dim>400</dim>
					<dim>256</dim>
					<dim>1</dim>
					<dim>300</dim>
				</port>
			</output>
		</layer>
		<layer id="8" name="res_layer1/branch1/conv1_bn/conv1_bn_moments/SquaredDifference/add_" precision="FP32" type="Eltwise">
			<data operation="sum"/>
			<input>
				<port id="0">
					<dim>400</dim>
					<dim>256</dim>
					<dim>1</dim>
					<dim>300</dim>
				</port>
				<port id="1">
					<dim>400</dim>
					<dim>256</dim>
					<dim>1</dim>
					<dim>300</dim>
				</port>
			</input>
			<output>
				<port id="2">
					<dim>400</dim>
					<dim>256</dim>
					<dim>1</dim>
					<dim>300</dim>
				</port>
			</output>
		</layer>
		<layer id="9" name="res_layer1/branch1/conv1_bn/conv1_bn_moments/SquaredDifference/squared_" precision="FP32" type="Power">
			<data power="2" scale="1" shift="0"/>
			<input>
				<port id="0">
					<dim>400</dim>
					<dim>256</dim>
					<dim>1</dim>
					<dim>300</dim>
				</port>
			</input>
			<output>
				<port id="1">
					<dim>400</dim>
					<dim>256</dim>
					<dim>1</dim>
					<dim>300</dim>
				</port>
			</output>
		</layer>
		<layer id="10" name="res_layer1/branch1/conv1_bn/conv1_bn_moments/variance" precision="FP32" type="Pooling">
			<data exclude-pad="true" kernel="400,1,300" pads_begin="0,0,0" pads_end="0,0,0" pool-method="avg" rounding-type="ceil" strides="1,1,1"/>
			<input>
				<port id="0">
					<dim>400</dim>
					<dim>256</dim>
					<dim>1</dim>
					<dim>300</dim>
				</port>
			</input>
			<output>
				<port id="1">
					<dim>1</dim>
					<dim>256</dim>
					<dim>1</dim>
					<dim>1</dim>
				</port>
			</output>
		</layer>
		<layer id="11" name="res_layer1/branch1/conv1_bn/conv1_bn_moments/Squeeze_1/DimData_const" precision="FP32" type="Const">
			<output>
				<port id="1">
					<dim>1</dim>
				</port>
			</output>
			<blobs>
				<custom offset="1040" size="4"/>
			</blobs>
		</layer>
		<layer id="12" name="res_layer1/branch1/conv1_bn/conv1_bn_moments/Squeeze_1" precision="FP32" type="Reshape">
			<input>
				<port id="0">
					<dim>1</dim>
					<dim>256</dim>
					<dim>1</dim>
					<dim>1</dim>
				</port>
				<port id="1">
					<dim>1</dim>
				</port>
			</input>
			<output>
				<port id="2">
					<dim>256</dim>
				</port>
			</output>
		</layer>
		<layer id="13" name="res_layer1/branch1/conv1_bn/batchnorm/add" precision="FP32" type="Power">
			<data power="1" scale="1" shift="9.999999747378752e-06"/>
			<input>
				<port id="0">
					<dim>256</dim>
				</port>
			</input>
			<output>
				<port id="1">
					<dim>256</dim>
				</port>
			</output>
		</layer>
		<layer id="14" name="res_layer1/branch1/conv1_bn/batchnorm/Rsqrt" precision="FP32" type="Power">
			<data power="-0.5" scale="1" shift="0"/>
			<input>
				<port id="0">
					<dim>256</dim>
				</port>
			</input>
			<output>
				<port id="1">
					<dim>256</dim>
				</port>
			</output>
		</layer>
		<layer id="15" name="ScaleShift/res_layer1/branch1/conv1_bn/batchnorm/mul" precision="FP32" type="ScaleShift">
			<input>
				<port id="0">
					<dim>256</dim>
				</port>
			</input>
			<output>
				<port id="3">
					<dim>256</dim>
				</port>
			</output>
			<blobs>
				<weights offset="1044" size="1024"/>
				<biases offset="2068" size="1024"/>
			</blobs>
		</layer>
		<layer id="16" name="res_layer1/branch1/conv1_bn/batchnorm/mul/Output_0/Data_/Broadcast/DimData_const" precision="FP32" type="Const">
			<output>
				<port id="1">
					<dim>4</dim>
				</port>
			</output>
			<blobs>
				<custom offset="3092" size="16"/>
			</blobs>
		</layer>
		<layer id="17" name="res_layer1/branch1/conv1_bn/batchnorm/mul/Output_0/Data_/Broadcast" precision="FP32" type="Reshape">
			<input>
				<port id="0">
					<dim>256</dim>
				</port>
				<port id="1">
					<dim>4</dim>
				</port>
			</input>
			<output>
				<port id="2">
					<dim>1</dim>
					<dim>256</dim>
					<dim>1</dim>
					<dim>1</dim>
				</port>
			</output>
		</layer>
		<layer id="18" name="res_layer1/branch1/conv1_bn/batchnorm/mul_1/Broadcast/" precision="FP32" type="Tile">
			<data axis="0" tiles="400"/>
			<input>
				<port id="0">
					<dim>1</dim>
					<dim>256</dim>
					<dim>1</dim>
					<dim>1</dim>
				</port>
			</input>
			<output>
				<port id="1">
					<dim>400</dim>
					<dim>256</dim>
					<dim>1</dim>
					<dim>1</dim>
				</port>
			</output>
		</layer>
		<layer id="19" name="res_layer1/branch1/conv1_bn/batchnorm/mul_1/Broadcast/2795" precision="FP32" type="Tile">
			<data axis="3" tiles="300"/>
			<input>
				<port id="0">
					<dim>400</dim>
					<dim>256</dim>
					<dim>1</dim>
					<dim>1</dim>
				</port>
			</input>
			<output>
				<port id="1">
					<dim>400</dim>
					<dim>256</dim>
					<dim>1</dim>
					<dim>300</dim>
				</port>
			</output>
		</layer>
		<layer id="20" name="res_layer1/branch1/conv1_bn/batchnorm/mul_1" precision="FP32" type="Eltwise">
			<data operation="mul"/>
			<input>
				<port id="0">
					<dim>400</dim>
					<dim>256</dim>
					<dim>1</dim>
					<dim>300</dim>
				</port>
				<port id="1">
					<dim>400</dim>
					<dim>256</dim>
					<dim>1</dim>
					<dim>300</dim>
				</port>
			</input>
			<output>
				<port id="2">
					<dim>400</dim>
					<dim>256</dim>
					<dim>1</dim>
					<dim>300</dim>
				</port>
			</output>
		</layer>
		<layer id="21" name="res_layer1/branch1/conv1_bn/conv1_bn_moments/Squeeze/DimData_const" precision="FP32" type="Const">
			<output>
				<port id="1">
					<dim>1</dim>
				</port>
			</output>
			<blobs>
				<custom offset="1040" size="4"/>
			</blobs>
		</layer>
		<layer id="22" name="res_layer1/branch1/conv1_bn/conv1_bn_moments/Squeeze" precision="FP32" type="Reshape">
			<input>
				<port id="0">
					<dim>1</dim>
					<dim>256</dim>
					<dim>1</dim>
					<dim>1</dim>
				</port>
				<port id="1">
					<dim>1</dim>
				</port>
			</input>
			<output>
				<port id="2">
					<dim>256</dim>
				</port>
			</output>
		</layer>
		<layer id="23" name="res_layer1/branch1/conv1_bn/batchnorm/mul_2" precision="FP32" type="Eltwise">
			<data operation="mul"/>
			<input>
				<port id="0">
					<dim>256</dim>
				</port>
				<port id="1">
					<dim>256</dim>
				</port>
			</input>
			<output>
				<port id="2">
					<dim>256</dim>
				</port>
			</output>
		</layer>
		<layer id="24" name="res_layer1/branch1/conv1_bn/batchnorm/sub/negate_" precision="FP32" type="Power">
			<data power="1" scale="-1" shift="0"/>
			<input>
				<port id="0">
					<dim>256</dim>
				</port>
			</input>
			<output>
				<port id="1">
					<dim>256</dim>
				</port>
			</output>
		</layer>
		<layer id="25" name="ScaleShift/res_layer1/branch1/conv1_bn/batchnorm/sub/add_" precision="FP32" type="ScaleShift">
			<input>
				<port id="0">
					<dim>256</dim>
				</port>
			</input>
			<output>
				<port id="3">
					<dim>256</dim>
				</port>
			</output>
			<blobs>
				<weights offset="3108" size="1024"/>
				<biases offset="4132" size="1024"/>
			</blobs>
		</layer>
		<layer id="26" name="res_layer1/branch1/conv1_bn/batchnorm/sub/add_/Output_0/Data_/Broadcast/DimData_const" precision="FP32" type="Const">
			<output>
				<port id="1">
					<dim>4</dim>
				</port>
			</output>
			<blobs>
				<custom offset="3092" size="16"/>
			</blobs>
		</layer>
		<layer id="27" name="res_layer1/branch1/conv1_bn/batchnorm/sub/add_/Output_0/Data_/Broadcast" precision="FP32" type="Reshape">
			<input>
				<port id="0">
					<dim>256</dim>
				</port>
				<port id="1">
					<dim>4</dim>
				</port>
			</input>
			<output>
				<port id="2">
					<dim>1</dim>
					<dim>256</dim>
					<dim>1</dim>
					<dim>1</dim>
				</port>
			</output>
		</layer>
		<layer id="28" name="res_layer1/branch1/conv1_bn/batchnorm/add_1/Broadcast/" precision="FP32" type="Tile">
			<data axis="0" tiles="400"/>
			<input>
				<port id="0">
					<dim>1</dim>
					<dim>256</dim>
					<dim>1</dim>
					<dim>1</dim>
				</port>
			</input>
			<output>
				<port id="1">
					<dim>400</dim>
					<dim>256</dim>
					<dim>1</dim>
					<dim>1</dim>
				</port>
			</output>
		</layer>
		<layer id="29" name="res_layer1/branch1/conv1_bn/batchnorm/add_1/Broadcast/2715" precision="FP32" type="Tile">
			<data axis="3" tiles="300"/>
			<input>
				<port id="0">
					<dim>400</dim>
					<dim>256</dim>
					<dim>1</dim>
					<dim>1</dim>
				</port>
			</input>
			<output>
				<port id="1">
					<dim>400</dim>
					<dim>256</dim>
					<dim>1</dim>
					<dim>300</dim>
				</port>
			</output>
		</layer>
		<layer id="30" name="res_layer1/branch1/conv1_bn/batchnorm/add_1" precision="FP32" type="Eltwise">
			<data operation="sum"/>
			<input>
				<port id="0">
					<dim>400</dim>
					<dim>256</dim>
					<dim>1</dim>
					<dim>300</dim>
				</port>
				<port id="1">
					<dim>400</dim>
					<dim>256</dim>
					<dim>1</dim>
					<dim>300</dim>
				</port>
			</input>
			<output>
				<port id="2">
					<dim>400</dim>
					<dim>256</dim>
					<dim>1</dim>
					<dim>300</dim>
				</port>
			</output>
		</layer>
		<layer id="31" name="res_layer1/branch2/conv2a/conv2a" precision="FP32" type="Convolution">
			<data auto_pad="same_upper" dilations="1,1" group="1" kernel="1,1" output="256" pads_begin="0,0" pads_end="0,0" strides="1,1"/>
			<input>
				<port id="0">
					<dim>400</dim>
					<dim>1</dim>
					<dim>1</dim>
					<dim>300</dim>
				</port>
			</input>
			<output>
				<port id="2">
					<dim>400</dim>
					<dim>256</dim>
					<dim>1</dim>
					<dim>300</dim>
				</port>
			</output>
			<blobs>
				<weights offset="5156" size="1024"/>
			</blobs>
		</layer>
		<layer id="32" name="res_layer1/branch2/conv2a_bn/conv2a_bn_moments/mean" precision="FP32" type="Pooling">
			<data exclude-pad="true" kernel="400,1,300" pads_begin="0,0,0" pads_end="0,0,0" pool-method="avg" rounding-type="ceil" strides="1,1,1"/>
			<input>
				<port id="0">
					<dim>400</dim>
					<dim>256</dim>
					<dim>1</dim>
					<dim>300</dim>
				</port>
			</input>
			<output>
				<port id="1">
					<dim>1</dim>
					<dim>256</dim>
					<dim>1</dim>
					<dim>1</dim>
				</port>
			</output>
		</layer>
		<layer id="33" name="res_layer1/branch2/conv2a_bn/conv2a_bn_moments/SquaredDifference/negate_" precision="FP32" type="Power">
			<data power="1" scale="-1" shift="0"/>
			<input>
				<port id="0">
					<dim>1</dim>
					<dim>256</dim>
					<dim>1</dim>
					<dim>1</dim>
				</port>
			</input>
			<output>
				<port id="1">
					<dim>1</dim>
					<dim>256</dim>
					<dim>1</dim>
					<dim>1</dim>
				</port>
			</output>
		</layer>
		<layer id="34" name="res_layer1/branch2/conv2a_bn/conv2a_bn_moments/SquaredDifference/add_/Broadcast/" precision="FP32" type="Tile">
			<data axis="0" tiles="400"/>
			<input>
				<port id="0">
					<dim>1</dim>
					<dim>256</dim>
					<dim>1</dim>
					<dim>1</dim>
				</port>
			</input>
			<output>
				<port id="1">
					<dim>400</dim>
					<dim>256</dim>
					<dim>1</dim>
					<dim>1</dim>
				</port>
			</output>
		</layer>
		<layer id="35" name="res_layer1/branch2/conv2a_bn/conv2a_bn_moments/SquaredDifference/add_/Broadcast/2783" precision="FP32" type="Tile">
			<data axis="3" tiles="300"/>
			<input>
				<port id="0">
					<dim>400</dim>
					<dim>256</dim>
					<dim>1</dim>
					<dim>1</dim>
				</port>
			</input>
			<output>
				<port id="1">
					<dim>400</dim>
					<dim>256</dim>
					<dim>1</dim>
					<dim>300</dim>
				</port>
			</output>
		</layer>
		<layer id="36" name="res_layer1/branch2/conv2a_bn/conv2a_bn_moments/SquaredDifference/add_" precision="FP32" type="Eltwise">
			<data operation="sum"/>
			<input>
				<port id="0">
					<dim>400</dim>
					<dim>256</dim>
					<dim>1</dim>
					<dim>300</dim>
				</port>
				<port id="1">
					<dim>400</dim>
					<dim>256</dim>
					<dim>1</dim>
					<dim>300</dim>
				</port>
			</input>
			<output>
				<port id="2">
					<dim>400</dim>
					<dim>256</dim>
					<dim>1</dim>
					<dim>300</dim>
				</port>
			</output>
		</layer>
		<layer id="37" name="res_layer1/branch2/conv2a_bn/conv2a_bn_moments/SquaredDifference/squared_" precision="FP32" type="Power">
			<data power="2" scale="1" shift="0"/>
			<input>
				<port id="0">
					<dim>400</dim>
					<dim>256</dim>
					<dim>1</dim>
					<dim>300</dim>
				</port>
			</input>
			<output>
				<port id="1">
					<dim>400</dim>
					<dim>256</dim>
					<dim>1</dim>
					<dim>300</dim>
				</port>
			</output>
		</layer>
		<layer id="38" name="res_layer1/branch2/conv2a_bn/conv2a_bn_moments/variance" precision="FP32" type="Pooling">
			<data exclude-pad="true" kernel="400,1,300" pads_begin="0,0,0" pads_end="0,0,0" pool-method="avg" rounding-type="ceil" strides="1,1,1"/>
			<input>
				<port id="0">
					<dim>400</dim>
					<dim>256</dim>
					<dim>1</dim>
					<dim>300</dim>
				</port>
			</input>
			<output>
				<port id="1">
					<dim>1</dim>
					<dim>256</dim>
					<dim>1</dim>
					<dim>1</dim>
				</port>
			</output>
		</layer>
		<layer id="39" name="res_layer1/branch2/conv2a_bn/conv2a_bn_moments/Squeeze_1/DimData_const" precision="FP32" type="Const">
			<output>
				<port id="1">
					<dim>1</dim>
				</port>
			</output>
			<blobs>
				<custom offset="1040" size="4"/>
			</blobs>
		</layer>
		<layer id="40" name="res_layer1/branch2/conv2a_bn/conv2a_bn_moments/Squeeze_1" precision="FP32" type="Reshape">
			<input>
				<port id="0">
					<dim>1</dim>
					<dim>256</dim>
					<dim>1</dim>
					<dim>1</dim>
				</port>
				<port id="1">
					<dim>1</dim>
				</port>
			</input>
			<output>
				<port id="2">
					<dim>256</dim>
				</port>
			</output>
		</layer>
		<layer id="41" name="res_layer1/branch2/conv2a_bn/batchnorm/add" precision="FP32" type="Power">
			<data power="1" scale="1" shift="9.999999747378752e-06"/>
			<input>
				<port id="0">
					<dim>256</dim>
				</port>
			</input>
			<output>
				<port id="1">
					<dim>256</dim>
				</port>
			</output>
		</layer>
		<layer id="42" name="res_layer1/branch2/conv2a_bn/batchnorm/Rsqrt" precision="FP32" type="Power">
			<data power="-0.5" scale="1" shift="0"/>
			<input>
				<port id="0">
					<dim>256</dim>
				</port>
			</input>
			<output>
				<port id="1">
					<dim>256</dim>
				</port>
			</output>
		</layer>
		<layer id="43" name="ScaleShift/res_layer1/branch2/conv2a_bn/batchnorm/mul" precision="FP32" type="ScaleShift">
			<input>
				<port id="0">
					<dim>256</dim>
				</port>
			</input>
			<output>
				<port id="3">
					<dim>256</dim>
				</port>
			</output>
			<blobs>
				<weights offset="6180" size="1024"/>
				<biases offset="2068" size="1024"/>
			</blobs>
		</layer>
		<layer id="44" name="res_layer1/branch2/conv2a_bn/batchnorm/mul/Output_0/Data_/Broadcast/DimData_const" precision="FP32" type="Const">
			<output>
				<port id="1">
					<dim>4</dim>
				</port>
			</output>
			<blobs>
				<custom offset="3092" size="16"/>
			</blobs>
		</layer>
		<layer id="45" name="res_layer1/branch2/conv2a_bn/batchnorm/mul/Output_0/Data_/Broadcast" precision="FP32" type="Reshape">
			<input>
				<port id="0">
					<dim>256</dim>
				</port>
				<port id="1">
					<dim>4</dim>
				</port>
			</input>
			<output>
				<port id="2">
					<dim>1</dim>
					<dim>256</dim>
					<dim>1</dim>
					<dim>1</dim>
				</port>
			</output>
		</layer>
		<layer id="46" name="res_layer1/branch2/conv2a_bn/batchnorm/mul_1/Broadcast/" precision="FP32" type="Tile">
			<data axis="0" tiles="400"/>
			<input>
				<port id="0">
					<dim>1</dim>
					<dim>256</dim>
					<dim>1</dim>
					<dim>1</dim>
				</port>
			</input>
			<output>
				<port id="1">
					<dim>400</dim>
					<dim>256</dim>
					<dim>1</dim>
					<dim>1</dim>
				</port>
			</output>
		</layer>
		<layer id="47" name="res_layer1/branch2/conv2a_bn/batchnorm/mul_1/Broadcast/2735" precision="FP32" type="Tile">
			<data axis="3" tiles="300"/>
			<input>
				<port id="0">
					<dim>400</dim>
					<dim>256</dim>
					<dim>1</dim>
					<dim>1</dim>
				</port>
			</input>
			<output>
				<port id="1">
					<dim>400</dim>
					<dim>256</dim>
					<dim>1</dim>
					<dim>300</dim>
				</port>
			</output>
		</layer>
		<layer id="48" name="res_layer1/branch2/conv2a_bn/batchnorm/mul_1" precision="FP32" type="Eltwise">
			<data operation="mul"/>
			<input>
				<port id="0">
					<dim>400</dim>
					<dim>256</dim>
					<dim>1</dim>
					<dim>300</dim>
				</port>
				<port id="1">
					<dim>400</dim>
					<dim>256</dim>
					<dim>1</dim>
					<dim>300</dim>
				</port>
			</input>
			<output>
				<port id="2">
					<dim>400</dim>
					<dim>256</dim>
					<dim>1</dim>
					<dim>300</dim>
				</port>
			</output>
		</layer>
		<layer id="49" name="res_layer1/branch2/conv2a_bn/conv2a_bn_moments/Squeeze/DimData_const" precision="FP32" type="Const">
			<output>
				<port id="1">
					<dim>1</dim>
				</port>
			</output>
			<blobs>
				<custom offset="1040" size="4"/>
			</blobs>
		</layer>
		<layer id="50" name="res_layer1/branch2/conv2a_bn/conv2a_bn_moments/Squeeze" precision="FP32" type="Reshape">
			<input>
				<port id="0">
					<dim>1</dim>
					<dim>256</dim>
					<dim>1</dim>
					<dim>1</dim>
				</port>
				<port id="1">
					<dim>1</dim>
				</port>
			</input>
			<output>
				<port id="2">
					<dim>256</dim>
				</port>
			</output>
		</layer>
		<layer id="51" name="res_layer1/branch2/conv2a_bn/batchnorm/mul_2" precision="FP32" type="Eltwise">
			<data operation="mul"/>
			<input>
				<port id="0">
					<dim>256</dim>
				</port>
				<port id="1">
					<dim>256</dim>
				</port>
			</input>
			<output>
				<port id="2">
					<dim>256</dim>
				</port>
			</output>
		</layer>
		<layer id="52" name="res_layer1/branch2/conv2a_bn/batchnorm/sub/negate_" precision="FP32" type="Power">
			<data power="1" scale="-1" shift="0"/>
			<input>
				<port id="0">
					<dim>256</dim>
				</port>
			</input>
			<output>
				<port id="1">
					<dim>256</dim>
				</port>
			</output>
		</layer>
		<layer id="53" name="ScaleShift/res_layer1/branch2/conv2a_bn/batchnorm/sub/add_" precision="FP32" type="ScaleShift">
			<input>
				<port id="0">
					<dim>256</dim>
				</port>
			</input>
			<output>
				<port id="3">
					<dim>256</dim>
				</port>
			</output>
			<blobs>
				<weights offset="3108" size="1024"/>
				<biases offset="7204" size="1024"/>
			</blobs>
		</layer>
		<layer id="54" name="res_layer1/branch2/conv2a_bn/batchnorm/sub/add_/Output_0/Data_/Broadcast/DimData_const" precision="FP32" type="Const">
			<output>
				<port id="1">
					<dim>4</dim>
				</port>
			</output>
			<blobs>
				<custom offset="3092" size="16"/>
			</blobs>
		</layer>
		<layer id="55" name="res_layer1/branch2/conv2a_bn/batchnorm/sub/add_/Output_0/Data_/Broadcast" precision="FP32" type="Reshape">
			<input>
				<port id="0">
					<dim>256</dim>
				</port>
				<port id="1">
					<dim>4</dim>
				</port>
			</input>
			<output>
				<port id="2">
					<dim>1</dim>
					<dim>256</dim>
					<dim>1</dim>
					<dim>1</dim>
				</port>
			</output>
		</layer>
		<layer id="56" name="res_layer1/branch2/conv2a_bn/batchnorm/add_1/Broadcast/" precision="FP32" type="Tile">
			<data axis="0" tiles="400"/>
			<input>
				<port id="0">
					<dim>1</dim>
					<dim>256</dim>
					<dim>1</dim>
					<dim>1</dim>
				</port>
			</input>
			<output>
				<port id="1">
					<dim>400</dim>
					<dim>256</dim>
					<dim>1</dim>
					<dim>1</dim>
				</port>
			</output>
		</layer>
		<layer id="57" name="res_layer1/branch2/conv2a_bn/batchnorm/add_1/Broadcast/2751" precision="FP32" type="Tile">
			<data axis="3" tiles="300"/>
			<input>
				<port id="0">
					<dim>400</dim>
					<dim>256</dim>
					<dim>1</dim>
					<dim>1</dim>
				</port>
			</input>
			<output>
				<port id="1">
					<dim>400</dim>
					<dim>256</dim>
					<dim>1</dim>
					<dim>300</dim>
				</port>
			</output>
		</layer>
		<layer id="58" name="res_layer1/branch2/conv2a_bn/batchnorm/add_1" precision="FP32" type="Eltwise">
			<data operation="sum"/>
			<input>
				<port id="0">
					<dim>400</dim>
					<dim>256</dim>
					<dim>1</dim>
					<dim>300</dim>
				</port>
				<port id="1">
					<dim>400</dim>
					<dim>256</dim>
					<dim>1</dim>
					<dim>300</dim>
				</port>
			</input>
			<output>
				<port id="2">
					<dim>400</dim>
					<dim>256</dim>
					<dim>1</dim>
					<dim>300</dim>
				</port>
			</output>
		</layer>
		<layer id="59" name="res_layer1/branch2/conv2a_relu/relu" precision="FP32" type="ReLU">
			<input>
				<port id="0">
					<dim>400</dim>
					<dim>256</dim>
					<dim>1</dim>
					<dim>300</dim>
				</port>
			</input>
			<output>
				<port id="1">
					<dim>400</dim>
					<dim>256</dim>
					<dim>1</dim>
					<dim>300</dim>
				</port>
			</output>
		</layer>
		<layer id="60" name="res_layer1/branch2/conv2b/conv2b" precision="FP32" type="Convolution">
			<data auto_pad="same_upper" dilations="1,1" group="1" kernel="1,3" output="256" pads_begin="0,1" pads_end="0,1" strides="1,1"/>
			<input>
				<port id="0">
					<dim>400</dim>
					<dim>256</dim>
					<dim>1</dim>
					<dim>300</dim>
				</port>
			</input>
			<output>
				<port id="2">
					<dim>400</dim>
					<dim>256</dim>
					<dim>1</dim>
					<dim>300</dim>
				</port>
			</output>
			<blobs>
				<weights offset="8228" size="786432"/>
			</blobs>
		</layer>
		<layer id="61" name="res_layer1/branch2/conv2b_bn/conv2b_bn_moments/mean" precision="FP32" type="Pooling">
			<data exclude-pad="true" kernel="400,1,300" pads_begin="0,0,0" pads_end="0,0,0" pool-method="avg" rounding-type="ceil" strides="1,1,1"/>
			<input>
				<port id="0">
					<dim>400</dim>
					<dim>256</dim>
					<dim>1</dim>
					<dim>300</dim>
				</port>
			</input>
			<output>
				<port id="1">
					<dim>1</dim>
					<dim>256</dim>
					<dim>1</dim>
					<dim>1</dim>
				</port>
			</output>
		</layer>
		<layer id="62" name="res_layer1/branch2/conv2b_bn/conv2b_bn_moments/SquaredDifference/negate_" precision="FP32" type="Power">
			<data power="1" scale="-1" shift="0"/>
			<input>
				<port id="0">
					<dim>1</dim>
					<dim>256</dim>
					<dim>1</dim>
					<dim>1</dim>
				</port>
			</input>
			<output>
				<port id="1">
					<dim>1</dim>
					<dim>256</dim>
					<dim>1</dim>
					<dim>1</dim>
				</port>
			</output>
		</layer>
		<layer id="63" name="res_layer1/branch2/conv2b_bn/conv2b_bn_moments/SquaredDifference/add_/Broadcast/" precision="FP32" type="Tile">
			<data axis="0" tiles="400"/>
			<input>
				<port id="0">
					<dim>1</dim>
					<dim>256</dim>
					<dim>1</dim>
					<dim>1</dim>
				</port>
			</input>
			<output>
				<port id="1">
					<dim>400</dim>
					<dim>256</dim>
					<dim>1</dim>
					<dim>1</dim>
				</port>
			</output>
		</layer>
		<layer id="64" name="res_layer1/branch2/conv2b_bn/conv2b_bn_moments/SquaredDifference/add_/Broadcast/2787" precision="FP32" type="Tile">
			<data axis="3" tiles="300"/>
			<input>
				<port id="0">
					<dim>400</dim>
					<dim>256</dim>
					<dim>1</dim>
					<dim>1</dim>
				</port>
			</input>
			<output>
				<port id="1">
					<dim>400</dim>
					<dim>256</dim>
					<dim>1</dim>
					<dim>300</dim>
				</port>
			</output>
		</layer>
		<layer id="65" name="res_layer1/branch2/conv2b_bn/conv2b_bn_moments/SquaredDifference/add_" precision="FP32" type="Eltwise">
			<data operation="sum"/>
			<input>
				<port id="0">
					<dim>400</dim>
					<dim>256</dim>
					<dim>1</dim>
					<dim>300</dim>
				</port>
				<port id="1">
					<dim>400</dim>
					<dim>256</dim>
					<dim>1</dim>
					<dim>300</dim>
				</port>
			</input>
			<output>
				<port id="2">
					<dim>400</dim>
					<dim>256</dim>
					<dim>1</dim>
					<dim>300</dim>
				</port>
			</output>
		</layer>
		<layer id="66" name="res_layer1/branch2/conv2b_bn/conv2b_bn_moments/SquaredDifference/squared_" precision="FP32" type="Power">
			<data power="2" scale="1" shift="0"/>
			<input>
				<port id="0">
					<dim>400</dim>
					<dim>256</dim>
					<dim>1</dim>
					<dim>300</dim>
				</port>
			</input>
			<output>
				<port id="1">
					<dim>400</dim>
					<dim>256</dim>
					<dim>1</dim>
					<dim>300</dim>
				</port>
			</output>
		</layer>
		<layer id="67" name="res_layer1/branch2/conv2b_bn/conv2b_bn_moments/variance" precision="FP32" type="Pooling">
			<data exclude-pad="true" kernel="400,1,300" pads_begin="0,0,0" pads_end="0,0,0" pool-method="avg" rounding-type="ceil" strides="1,1,1"/>
			<input>
				<port id="0">
					<dim>400</dim>
					<dim>256</dim>
					<dim>1</dim>
					<dim>300</dim>
				</port>
			</input>
			<output>
				<port id="1">
					<dim>1</dim>
					<dim>256</dim>
					<dim>1</dim>
					<dim>1</dim>
				</port>
			</output>
		</layer>
		<layer id="68" name="res_layer1/branch2/conv2b_bn/conv2b_bn_moments/Squeeze_1/DimData_const" precision="FP32" type="Const">
			<output>
				<port id="1">
					<dim>1</dim>
				</port>
			</output>
			<blobs>
				<custom offset="1040" size="4"/>
			</blobs>
		</layer>
		<layer id="69" name="res_layer1/branch2/conv2b_bn/conv2b_bn_moments/Squeeze_1" precision="FP32" type="Reshape">
			<input>
				<port id="0">
					<dim>1</dim>
					<dim>256</dim>
					<dim>1</dim>
					<dim>1</dim>
				</port>
				<port id="1">
					<dim>1</dim>
				</port>
			</input>
			<output>
				<port id="2">
					<dim>256</dim>
				</port>
			</output>
		</layer>
		<layer id="70" name="res_layer1/branch2/conv2b_bn/batchnorm/add" precision="FP32" type="Power">
			<data power="1" scale="1" shift="9.999999747378752e-06"/>
			<input>
				<port id="0">
					<dim>256</dim>
				</port>
			</input>
			<output>
				<port id="1">
					<dim>256</dim>
				</port>
			</output>
		</layer>
		<layer id="71" name="res_layer1/branch2/conv2b_bn/batchnorm/Rsqrt" precision="FP32" type="Power">
			<data power="-0.5" scale="1" shift="0"/>
			<input>
				<port id="0">
					<dim>256</dim>
				</port>
			</input>
			<output>
				<port id="1">
					<dim>256</dim>
				</port>
			</output>
		</layer>
		<layer id="72" name="ScaleShift/res_layer1/branch2/conv2b_bn/batchnorm/mul" precision="FP32" type="ScaleShift">
			<input>
				<port id="0">
					<dim>256</dim>
				</port>
			</input>
			<output>
				<port id="3">
					<dim>256</dim>
				</port>
			</output>
			<blobs>
				<weights offset="794660" size="1024"/>
				<biases offset="2068" size="1024"/>
			</blobs>
		</layer>
		<layer id="73" name="res_layer1/branch2/conv2b_bn/batchnorm/mul/Output_0/Data_/Broadcast/DimData_const" precision="FP32" type="Const">
			<output>
				<port id="1">
					<dim>4</dim>
				</port>
			</output>
			<blobs>
				<custom offset="3092" size="16"/>
			</blobs>
		</layer>
		<layer id="74" name="res_layer1/branch2/conv2b_bn/batchnorm/mul/Output_0/Data_/Broadcast" precision="FP32" type="Reshape">
			<input>
				<port id="0">
					<dim>256</dim>
				</port>
				<port id="1">
					<dim>4</dim>
				</port>
			</input>
			<output>
				<port id="2">
					<dim>1</dim>
					<dim>256</dim>
					<dim>1</dim>
					<dim>1</dim>
				</port>
			</output>
		</layer>
		<layer id="75" name="res_layer1/branch2/conv2b_bn/batchnorm/mul_1/Broadcast/" precision="FP32" type="Tile">
			<data axis="0" tiles="400"/>
			<input>
				<port id="0">
					<dim>1</dim>
					<dim>256</dim>
					<dim>1</dim>
					<dim>1</dim>
				</port>
			</input>
			<output>
				<port id="1">
					<dim>400</dim>
					<dim>256</dim>
					<dim>1</dim>
					<dim>1</dim>
				</port>
			</output>
		</layer>
		<layer id="76" name="res_layer1/branch2/conv2b_bn/batchnorm/mul_1/Broadcast/2743" precision="FP32" type="Tile">
			<data axis="3" tiles="300"/>
			<input>
				<port id="0">
					<dim>400</dim>
					<dim>256</dim>
					<dim>1</dim>
					<dim>1</dim>
				</port>
			</input>
			<output>
				<port id="1">
					<dim>400</dim>
					<dim>256</dim>
					<dim>1</dim>
					<dim>300</dim>
				</port>
			</output>
		</layer>
		<layer id="77" name="res_layer1/branch2/conv2b_bn/batchnorm/mul_1" precision="FP32" type="Eltwise">
			<data operation="mul"/>
			<input>
				<port id="0">
					<dim>400</dim>
					<dim>256</dim>
					<dim>1</dim>
					<dim>300</dim>
				</port>
				<port id="1">
					<dim>400</dim>
					<dim>256</dim>
					<dim>1</dim>
					<dim>300</dim>
				</port>
			</input>
			<output>
				<port id="2">
					<dim>400</dim>
					<dim>256</dim>
					<dim>1</dim>
					<dim>300</dim>
				</port>
			</output>
		</layer>
		<layer id="78" name="res_layer1/branch2/conv2b_bn/conv2b_bn_moments/Squeeze/DimData_const" precision="FP32" type="Const">
			<output>
				<port id="1">
					<dim>1</dim>
				</port>
			</output>
			<blobs>
				<custom offset="1040" size="4"/>
			</blobs>
		</layer>
		<layer id="79" name="res_layer1/branch2/conv2b_bn/conv2b_bn_moments/Squeeze" precision="FP32" type="Reshape">
			<input>
				<port id="0">
					<dim>1</dim>
					<dim>256</dim>
					<dim>1</dim>
					<dim>1</dim>
				</port>
				<port id="1">
					<dim>1</dim>
				</port>
			</input>
			<output>
				<port id="2">
					<dim>256</dim>
				</port>
			</output>
		</layer>
		<layer id="80" name="res_layer1/branch2/conv2b_bn/batchnorm/mul_2" precision="FP32" type="Eltwise">
			<data operation="mul"/>
			<input>
				<port id="0">
					<dim>256</dim>
				</port>
				<port id="1">
					<dim>256</dim>
				</port>
			</input>
			<output>
				<port id="2">
					<dim>256</dim>
				</port>
			</output>
		</layer>
		<layer id="81" name="res_layer1/branch2/conv2b_bn/batchnorm/sub/negate_" precision="FP32" type="Power">
			<data power="1" scale="-1" shift="0"/>
			<input>
				<port id="0">
					<dim>256</dim>
				</port>
			</input>
			<output>
				<port id="1">
					<dim>256</dim>
				</port>
			</output>
		</layer>
		<layer id="82" name="ScaleShift/res_layer1/branch2/conv2b_bn/batchnorm/sub/add_" precision="FP32" type="ScaleShift">
			<input>
				<port id="0">
					<dim>256</dim>
				</port>
			</input>
			<output>
				<port id="3">
					<dim>256</dim>
				</port>
			</output>
			<blobs>
				<weights offset="3108" size="1024"/>
				<biases offset="795684" size="1024"/>
			</blobs>
		</layer>
		<layer id="83" name="res_layer1/branch2/conv2b_bn/batchnorm/sub/add_/Output_0/Data_/Broadcast/DimData_const" precision="FP32" type="Const">
			<output>
				<port id="1">
					<dim>4</dim>
				</port>
			</output>
			<blobs>
				<custom offset="3092" size="16"/>
			</blobs>
		</layer>
		<layer id="84" name="res_layer1/branch2/conv2b_bn/batchnorm/sub/add_/Output_0/Data_/Broadcast" precision="FP32" type="Reshape">
			<input>
				<port id="0">
					<dim>256</dim>
				</port>
				<port id="1">
					<dim>4</dim>
				</port>
			</input>
			<output>
				<port id="2">
					<dim>1</dim>
					<dim>256</dim>
					<dim>1</dim>
					<dim>1</dim>
				</port>
			</output>
		</layer>
		<layer id="85" name="res_layer1/branch2/conv2b_bn/batchnorm/add_1/Broadcast/" precision="FP32" type="Tile">
			<data axis="0" tiles="400"/>
			<input>
				<port id="0">
					<dim>1</dim>
					<dim>256</dim>
					<dim>1</dim>
					<dim>1</dim>
				</port>
			</input>
			<output>
				<port id="1">
					<dim>400</dim>
					<dim>256</dim>
					<dim>1</dim>
					<dim>1</dim>
				</port>
			</output>
		</layer>
		<layer id="86" name="res_layer1/branch2/conv2b_bn/batchnorm/add_1/Broadcast/2707" precision="FP32" type="Tile">
			<data axis="3" tiles="300"/>
			<input>
				<port id="0">
					<dim>400</dim>
					<dim>256</dim>
					<dim>1</dim>
					<dim>1</dim>
				</port>
			</input>
			<output>
				<port id="1">
					<dim>400</dim>
					<dim>256</dim>
					<dim>1</dim>
					<dim>300</dim>
				</port>
			</output>
		</layer>
		<layer id="87" name="res_layer1/branch2/conv2b_bn/batchnorm/add_1" precision="FP32" type="Eltwise">
			<data operation="sum"/>
			<input>
				<port id="0">
					<dim>400</dim>
					<dim>256</dim>
					<dim>1</dim>
					<dim>300</dim>
				</port>
				<port id="1">
					<dim>400</dim>
					<dim>256</dim>
					<dim>1</dim>
					<dim>300</dim>
				</port>
			</input>
			<output>
				<port id="2">
					<dim>400</dim>
					<dim>256</dim>
					<dim>1</dim>
					<dim>300</dim>
				</port>
			</output>
		</layer>
		<layer id="88" name="res_layer1/branch2/conv2b_relu/relu" precision="FP32" type="ReLU">
			<input>
				<port id="0">
					<dim>400</dim>
					<dim>256</dim>
					<dim>1</dim>
					<dim>300</dim>
				</port>
			</input>
			<output>
				<port id="1">
					<dim>400</dim>
					<dim>256</dim>
					<dim>1</dim>
					<dim>300</dim>
				</port>
			</output>
		</layer>
		<layer id="89" name="res_layer1/branch2/conv2c/conv2c" precision="FP32" type="Convolution">
			<data auto_pad="same_upper" dilations="1,1" group="1" kernel="1,1" output="256" pads_begin="0,0" pads_end="0,0" strides="1,1"/>
			<input>
				<port id="0">
					<dim>400</dim>
					<dim>256</dim>
					<dim>1</dim>
					<dim>300</dim>
				</port>
			</input>
			<output>
				<port id="2">
					<dim>400</dim>
					<dim>256</dim>
					<dim>1</dim>
					<dim>300</dim>
				</port>
			</output>
			<blobs>
				<weights offset="796708" size="262144"/>
			</blobs>
		</layer>
		<layer id="90" name="res_layer1/branch2/conv2c_bn/conv2c_bn_moments/mean" precision="FP32" type="Pooling">
			<data exclude-pad="true" kernel="400,1,300" pads_begin="0,0,0" pads_end="0,0,0" pool-method="avg" rounding-type="ceil" strides="1,1,1"/>
			<input>
				<port id="0">
					<dim>400</dim>
					<dim>256</dim>
					<dim>1</dim>
					<dim>300</dim>
				</port>
			</input>
			<output>
				<port id="1">
					<dim>1</dim>
					<dim>256</dim>
					<dim>1</dim>
					<dim>1</dim>
				</port>
			</output>
		</layer>
		<layer id="91" name="res_layer1/branch2/conv2c_bn/conv2c_bn_moments/SquaredDifference/negate_" precision="FP32" type="Power">
			<data power="1" scale="-1" shift="0"/>
			<input>
				<port id="0">
					<dim>1</dim>
					<dim>256</dim>
					<dim>1</dim>
					<dim>1</dim>
				</port>
			</input>
			<output>
				<port id="1">
					<dim>1</dim>
					<dim>256</dim>
					<dim>1</dim>
					<dim>1</dim>
				</port>
			</output>
		</layer>
		<layer id="92" name="res_layer1/branch2/conv2c_bn/conv2c_bn_moments/SquaredDifference/add_/Broadcast/" precision="FP32" type="Tile">
			<data axis="0" tiles="400"/>
			<input>
				<port id="0">
					<dim>1</dim>
					<dim>256</dim>
					<dim>1</dim>
					<dim>1</dim>
				</port>
			</input>
			<output>
				<port id="1">
					<dim>400</dim>
					<dim>256</dim>
					<dim>1</dim>
					<dim>1</dim>
				</port>
			</output>
		</layer>
		<layer id="93" name="res_layer1/branch2/conv2c_bn/conv2c_bn_moments/SquaredDifference/add_/Broadcast/2699" precision="FP32" type="Tile">
			<data axis="3" tiles="300"/>
			<input>
				<port id="0">
					<dim>400</dim>
					<dim>256</dim>
					<dim>1</dim>
					<dim>1</dim>
				</port>
			</input>
			<output>
				<port id="1">
					<dim>400</dim>
					<dim>256</dim>
					<dim>1</dim>
					<dim>300</dim>
				</port>
			</output>
		</layer>
		<layer id="94" name="res_layer1/branch2/conv2c_bn/conv2c_bn_moments/SquaredDifference/add_" precision="FP32" type="Eltwise">
			<data operation="sum"/>
			<input>
				<port id="0">
					<dim>400</dim>
					<dim>256</dim>
					<dim>1</dim>
					<dim>300</dim>
				</port>
				<port id="1">
					<dim>400</dim>
					<dim>256</dim>
					<dim>1</dim>
					<dim>300</dim>
				</port>
			</input>
			<output>
				<port id="2">
					<dim>400</dim>
					<dim>256</dim>
					<dim>1</dim>
					<dim>300</dim>
				</port>
			</output>
		</layer>
		<layer id="95" name="res_layer1/branch2/conv2c_bn/conv2c_bn_moments/SquaredDifference/squared_" precision="FP32" type="Power">
			<data power="2" scale="1" shift="0"/>
			<input>
				<port id="0">
					<dim>400</dim>
					<dim>256</dim>
					<dim>1</dim>
					<dim>300</dim>
				</port>
			</input>
			<output>
				<port id="1">
					<dim>400</dim>
					<dim>256</dim>
					<dim>1</dim>
					<dim>300</dim>
				</port>
			</output>
		</layer>
		<layer id="96" name="res_layer1/branch2/conv2c_bn/conv2c_bn_moments/variance" precision="FP32" type="Pooling">
			<data exclude-pad="true" kernel="400,1,300" pads_begin="0,0,0" pads_end="0,0,0" pool-method="avg" rounding-type="ceil" strides="1,1,1"/>
			<input>
				<port id="0">
					<dim>400</dim>
					<dim>256</dim>
					<dim>1</dim>
					<dim>300</dim>
				</port>
			</input>
			<output>
				<port id="1">
					<dim>1</dim>
					<dim>256</dim>
					<dim>1</dim>
					<dim>1</dim>
				</port>
			</output>
		</layer>
		<layer id="97" name="res_layer1/branch2/conv2c_bn/conv2c_bn_moments/Squeeze_1/DimData_const" precision="FP32" type="Const">
			<output>
				<port id="1">
					<dim>1</dim>
				</port>
			</output>
			<blobs>
				<custom offset="1040" size="4"/>
			</blobs>
		</layer>
		<layer id="98" name="res_layer1/branch2/conv2c_bn/conv2c_bn_moments/Squeeze_1" precision="FP32" type="Reshape">
			<input>
				<port id="0">
					<dim>1</dim>
					<dim>256</dim>
					<dim>1</dim>
					<dim>1</dim>
				</port>
				<port id="1">
					<dim>1</dim>
				</port>
			</input>
			<output>
				<port id="2">
					<dim>256</dim>
				</port>
			</output>
		</layer>
		<layer id="99" name="res_layer1/branch2/conv2c_bn/batchnorm/add" precision="FP32" type="Power">
			<data power="1" scale="1" shift="9.999999747378752e-06"/>
			<input>
				<port id="0">
					<dim>256</dim>
				</port>
			</input>
			<output>
				<port id="1">
					<dim>256</dim>
				</port>
			</output>
		</layer>
		<layer id="100" name="res_layer1/branch2/conv2c_bn/batchnorm/Rsqrt" precision="FP32" type="Power">
			<data power="-0.5" scale="1" shift="0"/>
			<input>
				<port id="0">
					<dim>256</dim>
				</port>
			</input>
			<output>
				<port id="1">
					<dim>256</dim>
				</port>
			</output>
		</layer>
		<layer id="101" name="ScaleShift/res_layer1/branch2/conv2c_bn/batchnorm/mul" precision="FP32" type="ScaleShift">
			<input>
				<port id="0">
					<dim>256</dim>
				</port>
			</input>
			<output>
				<port id="3">
					<dim>256</dim>
				</port>
			</output>
			<blobs>
				<weights offset="1058852" size="1024"/>
				<biases offset="2068" size="1024"/>
			</blobs>
		</layer>
		<layer id="102" name="res_layer1/branch2/conv2c_bn/batchnorm/mul/Output_0/Data_/Broadcast/DimData_const" precision="FP32" type="Const">
			<output>
				<port id="1">
					<dim>4</dim>
				</port>
			</output>
			<blobs>
				<custom offset="3092" size="16"/>
			</blobs>
		</layer>
		<layer id="103" name="res_layer1/branch2/conv2c_bn/batchnorm/mul/Output_0/Data_/Broadcast" precision="FP32" type="Reshape">
			<input>
				<port id="0">
					<dim>256</dim>
				</port>
				<port id="1">
					<dim>4</dim>
				</port>
			</input>
			<output>
				<port id="2">
					<dim>1</dim>
					<dim>256</dim>
					<dim>1</dim>
					<dim>1</dim>
				</port>
			</output>
		</layer>
		<layer id="104" name="res_layer1/branch2/conv2c_bn/batchnorm/mul_1/Broadcast/" precision="FP32" type="Tile">
			<data axis="0" tiles="400"/>
			<input>
				<port id="0">
					<dim>1</dim>
					<dim>256</dim>
					<dim>1</dim>
					<dim>1</dim>
				</port>
			</input>
			<output>
				<port id="1">
					<dim>400</dim>
					<dim>256</dim>
					<dim>1</dim>
					<dim>1</dim>
				</port>
			</output>
		</layer>
		<layer id="105" name="res_layer1/branch2/conv2c_bn/batchnorm/mul_1/Broadcast/2771" precision="FP32" type="Tile">
			<data axis="3" tiles="300"/>
			<input>
				<port id="0">
					<dim>400</dim>
					<dim>256</dim>
					<dim>1</dim>
					<dim>1</dim>
				</port>
			</input>
			<output>
				<port id="1">
					<dim>400</dim>
					<dim>256</dim>
					<dim>1</dim>
					<dim>300</dim>
				</port>
			</output>
		</layer>
		<layer id="106" name="res_layer1/branch2/conv2c_bn/batchnorm/mul_1" precision="FP32" type="Eltwise">
			<data operation="mul"/>
			<input>
				<port id="0">
					<dim>400</dim>
					<dim>256</dim>
					<dim>1</dim>
					<dim>300</dim>
				</port>
				<port id="1">
					<dim>400</dim>
					<dim>256</dim>
					<dim>1</dim>
					<dim>300</dim>
				</port>
			</input>
			<output>
				<port id="2">
					<dim>400</dim>
					<dim>256</dim>
					<dim>1</dim>
					<dim>300</dim>
				</port>
			</output>
		</layer>
		<layer id="107" name="res_layer1/branch2/conv2c_bn/conv2c_bn_moments/Squeeze/DimData_const" precision="FP32" type="Const">
			<output>
				<port id="1">
					<dim>1</dim>
				</port>
			</output>
			<blobs>
				<custom offset="1040" size="4"/>
			</blobs>
		</layer>
		<layer id="108" name="res_layer1/branch2/conv2c_bn/conv2c_bn_moments/Squeeze" precision="FP32" type="Reshape">
			<input>
				<port id="0">
					<dim>1</dim>
					<dim>256</dim>
					<dim>1</dim>
					<dim>1</dim>
				</port>
				<port id="1">
					<dim>1</dim>
				</port>
			</input>
			<output>
				<port id="2">
					<dim>256</dim>
				</port>
			</output>
		</layer>
		<layer id="109" name="res_layer1/branch2/conv2c_bn/batchnorm/mul_2" precision="FP32" type="Eltwise">
			<data operation="mul"/>
			<input>
				<port id="0">
					<dim>256</dim>
				</port>
				<port id="1">
					<dim>256</dim>
				</port>
			</input>
			<output>
				<port id="2">
					<dim>256</dim>
				</port>
			</output>
		</layer>
		<layer id="110" name="res_layer1/branch2/conv2c_bn/batchnorm/sub/negate_" precision="FP32" type="Power">
			<data power="1" scale="-1" shift="0"/>
			<input>
				<port id="0">
					<dim>256</dim>
				</port>
			</input>
			<output>
				<port id="1">
					<dim>256</dim>
				</port>
			</output>
		</layer>
		<layer id="111" name="ScaleShift/res_layer1/branch2/conv2c_bn/batchnorm/sub/add_" precision="FP32" type="ScaleShift">
			<input>
				<port id="0">
					<dim>256</dim>
				</port>
			</input>
			<output>
				<port id="3">
					<dim>256</dim>
				</port>
			</output>
			<blobs>
				<weights offset="3108" size="1024"/>
				<biases offset="1059876" size="1024"/>
			</blobs>
		</layer>
		<layer id="112" name="res_layer1/branch2/conv2c_bn/batchnorm/sub/add_/Output_0/Data_/Broadcast/DimData_const" precision="FP32" type="Const">
			<output>
				<port id="1">
					<dim>4</dim>
				</port>
			</output>
			<blobs>
				<custom offset="3092" size="16"/>
			</blobs>
		</layer>
		<layer id="113" name="res_layer1/branch2/conv2c_bn/batchnorm/sub/add_/Output_0/Data_/Broadcast" precision="FP32" type="Reshape">
			<input>
				<port id="0">
					<dim>256</dim>
				</port>
				<port id="1">
					<dim>4</dim>
				</port>
			</input>
			<output>
				<port id="2">
					<dim>1</dim>
					<dim>256</dim>
					<dim>1</dim>
					<dim>1</dim>
				</port>
			</output>
		</layer>
		<layer id="114" name="res_layer1/branch2/conv2c_bn/batchnorm/add_1/Broadcast/" precision="FP32" type="Tile">
			<data axis="0" tiles="400"/>
			<input>
				<port id="0">
					<dim>1</dim>
					<dim>256</dim>
					<dim>1</dim>
					<dim>1</dim>
				</port>
			</input>
			<output>
				<port id="1">
					<dim>400</dim>
					<dim>256</dim>
					<dim>1</dim>
					<dim>1</dim>
				</port>
			</output>
		</layer>
		<layer id="115" name="res_layer1/branch2/conv2c_bn/batchnorm/add_1/Broadcast/2791" precision="FP32" type="Tile">
			<data axis="3" tiles="300"/>
			<input>
				<port id="0">
					<dim>400</dim>
					<dim>256</dim>
					<dim>1</dim>
					<dim>1</dim>
				</port>
			</input>
			<output>
				<port id="1">
					<dim>400</dim>
					<dim>256</dim>
					<dim>1</dim>
					<dim>300</dim>
				</port>
			</output>
		</layer>
		<layer id="116" name="res_layer1/branch2/conv2c_bn/batchnorm/add_1" precision="FP32" type="Eltwise">
			<data operation="sum"/>
			<input>
				<port id="0">
					<dim>400</dim>
					<dim>256</dim>
					<dim>1</dim>
					<dim>300</dim>
				</port>
				<port id="1">
					<dim>400</dim>
					<dim>256</dim>
					<dim>1</dim>
					<dim>300</dim>
				</port>
			</input>
			<output>
				<port id="2">
					<dim>400</dim>
					<dim>256</dim>
					<dim>1</dim>
					<dim>300</dim>
				</port>
			</output>
		</layer>
		<layer id="117" name="res_layer1/plus/add" precision="FP32" type="Eltwise">
			<data operation="sum"/>
			<input>
				<port id="0">
					<dim>400</dim>
					<dim>256</dim>
					<dim>1</dim>
					<dim>300</dim>
				</port>
				<port id="1">
					<dim>400</dim>
					<dim>256</dim>
					<dim>1</dim>
					<dim>300</dim>
				</port>
			</input>
			<output>
				<port id="2">
					<dim>400</dim>
					<dim>256</dim>
					<dim>1</dim>
					<dim>300</dim>
				</port>
			</output>
		</layer>
		<layer id="118" name="res_layer1/plus/final_relu" precision="FP32" type="ReLU">
			<input>
				<port id="0">
					<dim>400</dim>
					<dim>256</dim>
					<dim>1</dim>
					<dim>300</dim>
				</port>
			</input>
			<output>
				<port id="1">
					<dim>400</dim>
					<dim>256</dim>
					<dim>1</dim>
					<dim>300</dim>
				</port>
			</output>
		</layer>
		<layer id="119" name="res_layer2/branch1/conv1/conv1" precision="FP32" type="Convolution">
			<data auto_pad="same_upper" dilations="1,1" group="1" kernel="1,1" output="256" pads_begin="0,0" pads_end="0,0" strides="1,1"/>
			<input>
				<port id="0">
					<dim>400</dim>
					<dim>256</dim>
					<dim>1</dim>
					<dim>300</dim>
				</port>
			</input>
			<output>
				<port id="2">
					<dim>400</dim>
					<dim>256</dim>
					<dim>1</dim>
					<dim>300</dim>
				</port>
			</output>
			<blobs>
				<weights offset="1060900" size="262144"/>
			</blobs>
		</layer>
		<layer id="120" name="res_layer2/branch2/conv2a/conv2a" precision="FP32" type="Convolution">
			<data auto_pad="same_upper" dilations="1,1" group="1" kernel="1,1" output="256" pads_begin="0,0" pads_end="0,0" strides="1,1"/>
			<input>
				<port id="0">
					<dim>400</dim>
					<dim>256</dim>
					<dim>1</dim>
					<dim>300</dim>
				</port>
			</input>
			<output>
				<port id="2">
					<dim>400</dim>
					<dim>256</dim>
					<dim>1</dim>
					<dim>300</dim>
				</port>
			</output>
			<blobs>
				<weights offset="1323044" size="262144"/>
			</blobs>
		</layer>
		<layer id="121" name="res_layer2/branch2/conv2a_bn/conv2a_bn_moments/mean" precision="FP32" type="Pooling">
			<data exclude-pad="true" kernel="400,1,300" pads_begin="0,0,0" pads_end="0,0,0" pool-method="avg" rounding-type="ceil" strides="1,1,1"/>
			<input>
				<port id="0">
					<dim>400</dim>
					<dim>256</dim>
					<dim>1</dim>
					<dim>300</dim>
				</port>
			</input>
			<output>
				<port id="1">
					<dim>1</dim>
					<dim>256</dim>
					<dim>1</dim>
					<dim>1</dim>
				</port>
			</output>
		</layer>
		<layer id="122" name="res_layer2/branch2/conv2a_bn/conv2a_bn_moments/SquaredDifference/negate_" precision="FP32" type="Power">
			<data power="1" scale="-1" shift="0"/>
			<input>
				<port id="0">
					<dim>1</dim>
					<dim>256</dim>
					<dim>1</dim>
					<dim>1</dim>
				</port>
			</input>
			<output>
				<port id="1">
					<dim>1</dim>
					<dim>256</dim>
					<dim>1</dim>
					<dim>1</dim>
				</port>
			</output>
		</layer>
		<layer id="123" name="res_layer2/branch2/conv2a_bn/conv2a_bn_moments/SquaredDifference/add_/Broadcast/" precision="FP32" type="Tile">
			<data axis="0" tiles="400"/>
			<input>
				<port id="0">
					<dim>1</dim>
					<dim>256</dim>
					<dim>1</dim>
					<dim>1</dim>
				</port>
			</input>
			<output>
				<port id="1">
					<dim>400</dim>
					<dim>256</dim>
					<dim>1</dim>
					<dim>1</dim>
				</port>
			</output>
		</layer>
		<layer id="124" name="res_layer2/branch2/conv2a_bn/conv2a_bn_moments/SquaredDifference/add_/Broadcast/2799" precision="FP32" type="Tile">
			<data axis="3" tiles="300"/>
			<input>
				<port id="0">
					<dim>400</dim>
					<dim>256</dim>
					<dim>1</dim>
					<dim>1</dim>
				</port>
			</input>
			<output>
				<port id="1">
					<dim>400</dim>
					<dim>256</dim>
					<dim>1</dim>
					<dim>300</dim>
				</port>
			</output>
		</layer>
		<layer id="125" name="res_layer2/branch2/conv2a_bn/conv2a_bn_moments/SquaredDifference/add_" precision="FP32" type="Eltwise">
			<data operation="sum"/>
			<input>
				<port id="0">
					<dim>400</dim>
					<dim>256</dim>
					<dim>1</dim>
					<dim>300</dim>
				</port>
				<port id="1">
					<dim>400</dim>
					<dim>256</dim>
					<dim>1</dim>
					<dim>300</dim>
				</port>
			</input>
			<output>
				<port id="2">
					<dim>400</dim>
					<dim>256</dim>
					<dim>1</dim>
					<dim>300</dim>
				</port>
			</output>
		</layer>
		<layer id="126" name="res_layer2/branch2/conv2a_bn/conv2a_bn_moments/SquaredDifference/squared_" precision="FP32" type="Power">
			<data power="2" scale="1" shift="0"/>
			<input>
				<port id="0">
					<dim>400</dim>
					<dim>256</dim>
					<dim>1</dim>
					<dim>300</dim>
				</port>
			</input>
			<output>
				<port id="1">
					<dim>400</dim>
					<dim>256</dim>
					<dim>1</dim>
					<dim>300</dim>
				</port>
			</output>
		</layer>
		<layer id="127" name="res_layer2/branch2/conv2a_bn/conv2a_bn_moments/variance" precision="FP32" type="Pooling">
			<data exclude-pad="true" kernel="400,1,300" pads_begin="0,0,0" pads_end="0,0,0" pool-method="avg" rounding-type="ceil" strides="1,1,1"/>
			<input>
				<port id="0">
					<dim>400</dim>
					<dim>256</dim>
					<dim>1</dim>
					<dim>300</dim>
				</port>
			</input>
			<output>
				<port id="1">
					<dim>1</dim>
					<dim>256</dim>
					<dim>1</dim>
					<dim>1</dim>
				</port>
			</output>
		</layer>
		<layer id="128" name="res_layer2/branch2/conv2a_bn/conv2a_bn_moments/Squeeze_1/DimData_const" precision="FP32" type="Const">
			<output>
				<port id="1">
					<dim>1</dim>
				</port>
			</output>
			<blobs>
				<custom offset="1040" size="4"/>
			</blobs>
		</layer>
		<layer id="129" name="res_layer2/branch2/conv2a_bn/conv2a_bn_moments/Squeeze_1" precision="FP32" type="Reshape">
			<input>
				<port id="0">
					<dim>1</dim>
					<dim>256</dim>
					<dim>1</dim>
					<dim>1</dim>
				</port>
				<port id="1">
					<dim>1</dim>
				</port>
			</input>
			<output>
				<port id="2">
					<dim>256</dim>
				</port>
			</output>
		</layer>
		<layer id="130" name="res_layer2/branch2/conv2a_bn/batchnorm/add" precision="FP32" type="Power">
			<data power="1" scale="1" shift="9.999999747378752e-06"/>
			<input>
				<port id="0">
					<dim>256</dim>
				</port>
			</input>
			<output>
				<port id="1">
					<dim>256</dim>
				</port>
			</output>
		</layer>
		<layer id="131" name="res_layer2/branch2/conv2a_bn/batchnorm/Rsqrt" precision="FP32" type="Power">
			<data power="-0.5" scale="1" shift="0"/>
			<input>
				<port id="0">
					<dim>256</dim>
				</port>
			</input>
			<output>
				<port id="1">
					<dim>256</dim>
				</port>
			</output>
		</layer>
		<layer id="132" name="ScaleShift/res_layer2/branch2/conv2a_bn/batchnorm/mul" precision="FP32" type="ScaleShift">
			<input>
				<port id="0">
					<dim>256</dim>
				</port>
			</input>
			<output>
				<port id="3">
					<dim>256</dim>
				</port>
			</output>
			<blobs>
				<weights offset="1585188" size="1024"/>
				<biases offset="2068" size="1024"/>
			</blobs>
		</layer>
		<layer id="133" name="res_layer2/branch2/conv2a_bn/batchnorm/mul/Output_0/Data_/Broadcast/DimData_const" precision="FP32" type="Const">
			<output>
				<port id="1">
					<dim>4</dim>
				</port>
			</output>
			<blobs>
				<custom offset="3092" size="16"/>
			</blobs>
		</layer>
		<layer id="134" name="res_layer2/branch2/conv2a_bn/batchnorm/mul/Output_0/Data_/Broadcast" precision="FP32" type="Reshape">
			<input>
				<port id="0">
					<dim>256</dim>
				</port>
				<port id="1">
					<dim>4</dim>
				</port>
			</input>
			<output>
				<port id="2">
					<dim>1</dim>
					<dim>256</dim>
					<dim>1</dim>
					<dim>1</dim>
				</port>
			</output>
		</layer>
		<layer id="135" name="res_layer2/branch2/conv2a_bn/batchnorm/mul_1/Broadcast/" precision="FP32" type="Tile">
			<data axis="0" tiles="400"/>
			<input>
				<port id="0">
					<dim>1</dim>
					<dim>256</dim>
					<dim>1</dim>
					<dim>1</dim>
				</port>
			</input>
			<output>
				<port id="1">
					<dim>400</dim>
					<dim>256</dim>
					<dim>1</dim>
					<dim>1</dim>
				</port>
			</output>
		</layer>
		<layer id="136" name="res_layer2/branch2/conv2a_bn/batchnorm/mul_1/Broadcast/2719" precision="FP32" type="Tile">
			<data axis="3" tiles="300"/>
			<input>
				<port id="0">
					<dim>400</dim>
					<dim>256</dim>
					<dim>1</dim>
					<dim>1</dim>
				</port>
			</input>
			<output>
				<port id="1">
					<dim>400</dim>
					<dim>256</dim>
					<dim>1</dim>
					<dim>300</dim>
				</port>
			</output>
		</layer>
		<layer id="137" name="res_layer2/branch2/conv2a_bn/batchnorm/mul_1" precision="FP32" type="Eltwise">
			<data operation="mul"/>
			<input>
				<port id="0">
					<dim>400</dim>
					<dim>256</dim>
					<dim>1</dim>
					<dim>300</dim>
				</port>
				<port id="1">
					<dim>400</dim>
					<dim>256</dim>
					<dim>1</dim>
					<dim>300</dim>
				</port>
			</input>
			<output>
				<port id="2">
					<dim>400</dim>
					<dim>256</dim>
					<dim>1</dim>
					<dim>300</dim>
				</port>
			</output>
		</layer>
		<layer id="138" name="res_layer2/branch2/conv2a_bn/conv2a_bn_moments/Squeeze/DimData_const" precision="FP32" type="Const">
			<output>
				<port id="1">
					<dim>1</dim>
				</port>
			</output>
			<blobs>
				<custom offset="1040" size="4"/>
			</blobs>
		</layer>
		<layer id="139" name="res_layer2/branch2/conv2a_bn/conv2a_bn_moments/Squeeze" precision="FP32" type="Reshape">
			<input>
				<port id="0">
					<dim>1</dim>
					<dim>256</dim>
					<dim>1</dim>
					<dim>1</dim>
				</port>
				<port id="1">
					<dim>1</dim>
				</port>
			</input>
			<output>
				<port id="2">
					<dim>256</dim>
				</port>
			</output>
		</layer>
		<layer id="140" name="res_layer2/branch2/conv2a_bn/batchnorm/mul_2" precision="FP32" type="Eltwise">
			<data operation="mul"/>
			<input>
				<port id="0">
					<dim>256</dim>
				</port>
				<port id="1">
					<dim>256</dim>
				</port>
			</input>
			<output>
				<port id="2">
					<dim>256</dim>
				</port>
			</output>
		</layer>
		<layer id="141" name="res_layer2/branch2/conv2a_bn/batchnorm/sub/negate_" precision="FP32" type="Power">
			<data power="1" scale="-1" shift="0"/>
			<input>
				<port id="0">
					<dim>256</dim>
				</port>
			</input>
			<output>
				<port id="1">
					<dim>256</dim>
				</port>
			</output>
		</layer>
		<layer id="142" name="ScaleShift/res_layer2/branch2/conv2a_bn/batchnorm/sub/add_" precision="FP32" type="ScaleShift">
			<input>
				<port id="0">
					<dim>256</dim>
				</port>
			</input>
			<output>
				<port id="3">
					<dim>256</dim>
				</port>
			</output>
			<blobs>
				<weights offset="3108" size="1024"/>
				<biases offset="1586212" size="1024"/>
			</blobs>
		</layer>
		<layer id="143" name="res_layer2/branch2/conv2a_bn/batchnorm/sub/add_/Output_0/Data_/Broadcast/DimData_const" precision="FP32" type="Const">
			<output>
				<port id="1">
					<dim>4</dim>
				</port>
			</output>
			<blobs>
				<custom offset="3092" size="16"/>
			</blobs>
		</layer>
		<layer id="144" name="res_layer2/branch2/conv2a_bn/batchnorm/sub/add_/Output_0/Data_/Broadcast" precision="FP32" type="Reshape">
			<input>
				<port id="0">
					<dim>256</dim>
				</port>
				<port id="1">
					<dim>4</dim>
				</port>
			</input>
			<output>
				<port id="2">
					<dim>1</dim>
					<dim>256</dim>
					<dim>1</dim>
					<dim>1</dim>
				</port>
			</output>
		</layer>
		<layer id="145" name="res_layer2/branch2/conv2a_bn/batchnorm/add_1/Broadcast/" precision="FP32" type="Tile">
			<data axis="0" tiles="400"/>
			<input>
				<port id="0">
					<dim>1</dim>
					<dim>256</dim>
					<dim>1</dim>
					<dim>1</dim>
				</port>
			</input>
			<output>
				<port id="1">
					<dim>400</dim>
					<dim>256</dim>
					<dim>1</dim>
					<dim>1</dim>
				</port>
			</output>
		</layer>
		<layer id="146" name="res_layer2/branch2/conv2a_bn/batchnorm/add_1/Broadcast/2767" precision="FP32" type="Tile">
			<data axis="3" tiles="300"/>
			<input>
				<port id="0">
					<dim>400</dim>
					<dim>256</dim>
					<dim>1</dim>
					<dim>1</dim>
				</port>
			</input>
			<output>
				<port id="1">
					<dim>400</dim>
					<dim>256</dim>
					<dim>1</dim>
					<dim>300</dim>
				</port>
			</output>
		</layer>
		<layer id="147" name="res_layer2/branch2/conv2a_bn/batchnorm/add_1" precision="FP32" type="Eltwise">
			<data operation="sum"/>
			<input>
				<port id="0">
					<dim>400</dim>
					<dim>256</dim>
					<dim>1</dim>
					<dim>300</dim>
				</port>
				<port id="1">
					<dim>400</dim>
					<dim>256</dim>
					<dim>1</dim>
					<dim>300</dim>
				</port>
			</input>
			<output>
				<port id="2">
					<dim>400</dim>
					<dim>256</dim>
					<dim>1</dim>
					<dim>300</dim>
				</port>
			</output>
		</layer>
		<layer id="148" name="res_layer2/branch2/conv2a_relu/relu" precision="FP32" type="ReLU">
			<input>
				<port id="0">
					<dim>400</dim>
					<dim>256</dim>
					<dim>1</dim>
					<dim>300</dim>
				</port>
			</input>
			<output>
				<port id="1">
					<dim>400</dim>
					<dim>256</dim>
					<dim>1</dim>
					<dim>300</dim>
				</port>
			</output>
		</layer>
		<layer id="149" name="res_layer2/branch2/conv2b/conv2b" precision="FP32" type="Convolution">
			<data auto_pad="same_upper" dilations="1,1" group="1" kernel="1,3" output="256" pads_begin="0,1" pads_end="0,1" strides="1,1"/>
			<input>
				<port id="0">
					<dim>400</dim>
					<dim>256</dim>
					<dim>1</dim>
					<dim>300</dim>
				</port>
			</input>
			<output>
				<port id="2">
					<dim>400</dim>
					<dim>256</dim>
					<dim>1</dim>
					<dim>300</dim>
				</port>
			</output>
			<blobs>
				<weights offset="1587236" size="786432"/>
			</blobs>
		</layer>
		<layer id="150" name="res_layer2/branch2/conv2b_bn/conv2b_bn_moments/mean" precision="FP32" type="Pooling">
			<data exclude-pad="true" kernel="400,1,300" pads_begin="0,0,0" pads_end="0,0,0" pool-method="avg" rounding-type="ceil" strides="1,1,1"/>
			<input>
				<port id="0">
					<dim>400</dim>
					<dim>256</dim>
					<dim>1</dim>
					<dim>300</dim>
				</port>
			</input>
			<output>
				<port id="1">
					<dim>1</dim>
					<dim>256</dim>
					<dim>1</dim>
					<dim>1</dim>
				</port>
			</output>
		</layer>
		<layer id="151" name="res_layer2/branch2/conv2b_bn/conv2b_bn_moments/SquaredDifference/negate_" precision="FP32" type="Power">
			<data power="1" scale="-1" shift="0"/>
			<input>
				<port id="0">
					<dim>1</dim>
					<dim>256</dim>
					<dim>1</dim>
					<dim>1</dim>
				</port>
			</input>
			<output>
				<port id="1">
					<dim>1</dim>
					<dim>256</dim>
					<dim>1</dim>
					<dim>1</dim>
				</port>
			</output>
		</layer>
		<layer id="152" name="res_layer2/branch2/conv2b_bn/conv2b_bn_moments/SquaredDifference/add_/Broadcast/" precision="FP32" type="Tile">
			<data axis="0" tiles="400"/>
			<input>
				<port id="0">
					<dim>1</dim>
					<dim>256</dim>
					<dim>1</dim>
					<dim>1</dim>
				</port>
			</input>
			<output>
				<port id="1">
					<dim>400</dim>
					<dim>256</dim>
					<dim>1</dim>
					<dim>1</dim>
				</port>
			</output>
		</layer>
		<layer id="153" name="res_layer2/branch2/conv2b_bn/conv2b_bn_moments/SquaredDifference/add_/Broadcast/2727" precision="FP32" type="Tile">
			<data axis="3" tiles="300"/>
			<input>
				<port id="0">
					<dim>400</dim>
					<dim>256</dim>
					<dim>1</dim>
					<dim>1</dim>
				</port>
			</input>
			<output>
				<port id="1">
					<dim>400</dim>
					<dim>256</dim>
					<dim>1</dim>
					<dim>300</dim>
				</port>
			</output>
		</layer>
		<layer id="154" name="res_layer2/branch2/conv2b_bn/conv2b_bn_moments/SquaredDifference/add_" precision="FP32" type="Eltwise">
			<data operation="sum"/>
			<input>
				<port id="0">
					<dim>400</dim>
					<dim>256</dim>
					<dim>1</dim>
					<dim>300</dim>
				</port>
				<port id="1">
					<dim>400</dim>
					<dim>256</dim>
					<dim>1</dim>
					<dim>300</dim>
				</port>
			</input>
			<output>
				<port id="2">
					<dim>400</dim>
					<dim>256</dim>
					<dim>1</dim>
					<dim>300</dim>
				</port>
			</output>
		</layer>
		<layer id="155" name="res_layer2/branch2/conv2b_bn/conv2b_bn_moments/SquaredDifference/squared_" precision="FP32" type="Power">
			<data power="2" scale="1" shift="0"/>
			<input>
				<port id="0">
					<dim>400</dim>
					<dim>256</dim>
					<dim>1</dim>
					<dim>300</dim>
				</port>
			</input>
			<output>
				<port id="1">
					<dim>400</dim>
					<dim>256</dim>
					<dim>1</dim>
					<dim>300</dim>
				</port>
			</output>
		</layer>
		<layer id="156" name="res_layer2/branch2/conv2b_bn/conv2b_bn_moments/variance" precision="FP32" type="Pooling">
			<data exclude-pad="true" kernel="400,1,300" pads_begin="0,0,0" pads_end="0,0,0" pool-method="avg" rounding-type="ceil" strides="1,1,1"/>
			<input>
				<port id="0">
					<dim>400</dim>
					<dim>256</dim>
					<dim>1</dim>
					<dim>300</dim>
				</port>
			</input>
			<output>
				<port id="1">
					<dim>1</dim>
					<dim>256</dim>
					<dim>1</dim>
					<dim>1</dim>
				</port>
			</output>
		</layer>
		<layer id="157" name="res_layer2/branch2/conv2b_bn/conv2b_bn_moments/Squeeze_1/DimData_const" precision="FP32" type="Const">
			<output>
				<port id="1">
					<dim>1</dim>
				</port>
			</output>
			<blobs>
				<custom offset="1040" size="4"/>
			</blobs>
		</layer>
		<layer id="158" name="res_layer2/branch2/conv2b_bn/conv2b_bn_moments/Squeeze_1" precision="FP32" type="Reshape">
			<input>
				<port id="0">
					<dim>1</dim>
					<dim>256</dim>
					<dim>1</dim>
					<dim>1</dim>
				</port>
				<port id="1">
					<dim>1</dim>
				</port>
			</input>
			<output>
				<port id="2">
					<dim>256</dim>
				</port>
			</output>
		</layer>
		<layer id="159" name="res_layer2/branch2/conv2b_bn/batchnorm/add" precision="FP32" type="Power">
			<data power="1" scale="1" shift="9.999999747378752e-06"/>
			<input>
				<port id="0">
					<dim>256</dim>
				</port>
			</input>
			<output>
				<port id="1">
					<dim>256</dim>
				</port>
			</output>
		</layer>
		<layer id="160" name="res_layer2/branch2/conv2b_bn/batchnorm/Rsqrt" precision="FP32" type="Power">
			<data power="-0.5" scale="1" shift="0"/>
			<input>
				<port id="0">
					<dim>256</dim>
				</port>
			</input>
			<output>
				<port id="1">
					<dim>256</dim>
				</port>
			</output>
		</layer>
		<layer id="161" name="ScaleShift/res_layer2/branch2/conv2b_bn/batchnorm/mul" precision="FP32" type="ScaleShift">
			<input>
				<port id="0">
					<dim>256</dim>
				</port>
			</input>
			<output>
				<port id="3">
					<dim>256</dim>
				</port>
			</output>
			<blobs>
				<weights offset="2373668" size="1024"/>
				<biases offset="2068" size="1024"/>
			</blobs>
		</layer>
		<layer id="162" name="res_layer2/branch2/conv2b_bn/batchnorm/mul/Output_0/Data_/Broadcast/DimData_const" precision="FP32" type="Const">
			<output>
				<port id="1">
					<dim>4</dim>
				</port>
			</output>
			<blobs>
				<custom offset="3092" size="16"/>
			</blobs>
		</layer>
		<layer id="163" name="res_layer2/branch2/conv2b_bn/batchnorm/mul/Output_0/Data_/Broadcast" precision="FP32" type="Reshape">
			<input>
				<port id="0">
					<dim>256</dim>
				</port>
				<port id="1">
					<dim>4</dim>
				</port>
			</input>
			<output>
				<port id="2">
					<dim>1</dim>
					<dim>256</dim>
					<dim>1</dim>
					<dim>1</dim>
				</port>
			</output>
		</layer>
		<layer id="164" name="res_layer2/branch2/conv2b_bn/batchnorm/mul_1/Broadcast/" precision="FP32" type="Tile">
			<data axis="0" tiles="400"/>
			<input>
				<port id="0">
					<dim>1</dim>
					<dim>256</dim>
					<dim>1</dim>
					<dim>1</dim>
				</port>
			</input>
			<output>
				<port id="1">
					<dim>400</dim>
					<dim>256</dim>
					<dim>1</dim>
					<dim>1</dim>
				</port>
			</output>
		</layer>
		<layer id="165" name="res_layer2/branch2/conv2b_bn/batchnorm/mul_1/Broadcast/2775" precision="FP32" type="Tile">
			<data axis="3" tiles="300"/>
			<input>
				<port id="0">
					<dim>400</dim>
					<dim>256</dim>
					<dim>1</dim>
					<dim>1</dim>
				</port>
			</input>
			<output>
				<port id="1">
					<dim>400</dim>
					<dim>256</dim>
					<dim>1</dim>
					<dim>300</dim>
				</port>
			</output>
		</layer>
		<layer id="166" name="res_layer2/branch2/conv2b_bn/batchnorm/mul_1" precision="FP32" type="Eltwise">
			<data operation="mul"/>
			<input>
				<port id="0">
					<dim>400</dim>
					<dim>256</dim>
					<dim>1</dim>
					<dim>300</dim>
				</port>
				<port id="1">
					<dim>400</dim>
					<dim>256</dim>
					<dim>1</dim>
					<dim>300</dim>
				</port>
			</input>
			<output>
				<port id="2">
					<dim>400</dim>
					<dim>256</dim>
					<dim>1</dim>
					<dim>300</dim>
				</port>
			</output>
		</layer>
		<layer id="167" name="res_layer2/branch2/conv2b_bn/conv2b_bn_moments/Squeeze/DimData_const" precision="FP32" type="Const">
			<output>
				<port id="1">
					<dim>1</dim>
				</port>
			</output>
			<blobs>
				<custom offset="1040" size="4"/>
			</blobs>
		</layer>
		<layer id="168" name="res_layer2/branch2/conv2b_bn/conv2b_bn_moments/Squeeze" precision="FP32" type="Reshape">
			<input>
				<port id="0">
					<dim>1</dim>
					<dim>256</dim>
					<dim>1</dim>
					<dim>1</dim>
				</port>
				<port id="1">
					<dim>1</dim>
				</port>
			</input>
			<output>
				<port id="2">
					<dim>256</dim>
				</port>
			</output>
		</layer>
		<layer id="169" name="res_layer2/branch2/conv2b_bn/batchnorm/mul_2" precision="FP32" type="Eltwise">
			<data operation="mul"/>
			<input>
				<port id="0">
					<dim>256</dim>
				</port>
				<port id="1">
					<dim>256</dim>
				</port>
			</input>
			<output>
				<port id="2">
					<dim>256</dim>
				</port>
			</output>
		</layer>
		<layer id="170" name="res_layer2/branch2/conv2b_bn/batchnorm/sub/negate_" precision="FP32" type="Power">
			<data power="1" scale="-1" shift="0"/>
			<input>
				<port id="0">
					<dim>256</dim>
				</port>
			</input>
			<output>
				<port id="1">
					<dim>256</dim>
				</port>
			</output>
		</layer>
		<layer id="171" name="ScaleShift/res_layer2/branch2/conv2b_bn/batchnorm/sub/add_" precision="FP32" type="ScaleShift">
			<input>
				<port id="0">
					<dim>256</dim>
				</port>
			</input>
			<output>
				<port id="3">
					<dim>256</dim>
				</port>
			</output>
			<blobs>
				<weights offset="3108" size="1024"/>
				<biases offset="2374692" size="1024"/>
			</blobs>
		</layer>
		<layer id="172" name="res_layer2/branch2/conv2b_bn/batchnorm/sub/add_/Output_0/Data_/Broadcast/DimData_const" precision="FP32" type="Const">
			<output>
				<port id="1">
					<dim>4</dim>
				</port>
			</output>
			<blobs>
				<custom offset="3092" size="16"/>
			</blobs>
		</layer>
		<layer id="173" name="res_layer2/branch2/conv2b_bn/batchnorm/sub/add_/Output_0/Data_/Broadcast" precision="FP32" type="Reshape">
			<input>
				<port id="0">
					<dim>256</dim>
				</port>
				<port id="1">
					<dim>4</dim>
				</port>
			</input>
			<output>
				<port id="2">
					<dim>1</dim>
					<dim>256</dim>
					<dim>1</dim>
					<dim>1</dim>
				</port>
			</output>
		</layer>
		<layer id="174" name="res_layer2/branch2/conv2b_bn/batchnorm/add_1/Broadcast/" precision="FP32" type="Tile">
			<data axis="0" tiles="400"/>
			<input>
				<port id="0">
					<dim>1</dim>
					<dim>256</dim>
					<dim>1</dim>
					<dim>1</dim>
				</port>
			</input>
			<output>
				<port id="1">
					<dim>400</dim>
					<dim>256</dim>
					<dim>1</dim>
					<dim>1</dim>
				</port>
			</output>
		</layer>
		<layer id="175" name="res_layer2/branch2/conv2b_bn/batchnorm/add_1/Broadcast/2703" precision="FP32" type="Tile">
			<data axis="3" tiles="300"/>
			<input>
				<port id="0">
					<dim>400</dim>
					<dim>256</dim>
					<dim>1</dim>
					<dim>1</dim>
				</port>
			</input>
			<output>
				<port id="1">
					<dim>400</dim>
					<dim>256</dim>
					<dim>1</dim>
					<dim>300</dim>
				</port>
			</output>
		</layer>
		<layer id="176" name="res_layer2/branch2/conv2b_bn/batchnorm/add_1" precision="FP32" type="Eltwise">
			<data operation="sum"/>
			<input>
				<port id="0">
					<dim>400</dim>
					<dim>256</dim>
					<dim>1</dim>
					<dim>300</dim>
				</port>
				<port id="1">
					<dim>400</dim>
					<dim>256</dim>
					<dim>1</dim>
					<dim>300</dim>
				</port>
			</input>
			<output>
				<port id="2">
					<dim>400</dim>
					<dim>256</dim>
					<dim>1</dim>
					<dim>300</dim>
				</port>
			</output>
		</layer>
		<layer id="177" name="res_layer2/branch2/conv2b_relu/relu" precision="FP32" type="ReLU">
			<input>
				<port id="0">
					<dim>400</dim>
					<dim>256</dim>
					<dim>1</dim>
					<dim>300</dim>
				</port>
			</input>
			<output>
				<port id="1">
					<dim>400</dim>
					<dim>256</dim>
					<dim>1</dim>
					<dim>300</dim>
				</port>
			</output>
		</layer>
		<layer id="178" name="res_layer2/branch2/conv2c/conv2c" precision="FP32" type="Convolution">
			<data auto_pad="same_upper" dilations="1,1" group="1" kernel="1,1" output="256" pads_begin="0,0" pads_end="0,0" strides="1,1"/>
			<input>
				<port id="0">
					<dim>400</dim>
					<dim>256</dim>
					<dim>1</dim>
					<dim>300</dim>
				</port>
			</input>
			<output>
				<port id="2">
					<dim>400</dim>
					<dim>256</dim>
					<dim>1</dim>
					<dim>300</dim>
				</port>
			</output>
			<blobs>
				<weights offset="2375716" size="262144"/>
			</blobs>
		</layer>
		<layer id="179" name="res_layer2/branch2/conv2c_bn/conv2c_bn_moments/mean" precision="FP32" type="Pooling">
			<data exclude-pad="true" kernel="400,1,300" pads_begin="0,0,0" pads_end="0,0,0" pool-method="avg" rounding-type="ceil" strides="1,1,1"/>
			<input>
				<port id="0">
					<dim>400</dim>
					<dim>256</dim>
					<dim>1</dim>
					<dim>300</dim>
				</port>
			</input>
			<output>
				<port id="1">
					<dim>1</dim>
					<dim>256</dim>
					<dim>1</dim>
					<dim>1</dim>
				</port>
			</output>
		</layer>
		<layer id="180" name="res_layer2/branch2/conv2c_bn/conv2c_bn_moments/SquaredDifference/negate_" precision="FP32" type="Power">
			<data power="1" scale="-1" shift="0"/>
			<input>
				<port id="0">
					<dim>1</dim>
					<dim>256</dim>
					<dim>1</dim>
					<dim>1</dim>
				</port>
			</input>
			<output>
				<port id="1">
					<dim>1</dim>
					<dim>256</dim>
					<dim>1</dim>
					<dim>1</dim>
				</port>
			</output>
		</layer>
		<layer id="181" name="res_layer2/branch2/conv2c_bn/conv2c_bn_moments/SquaredDifference/add_/Broadcast/" precision="FP32" type="Tile">
			<data axis="0" tiles="400"/>
			<input>
				<port id="0">
					<dim>1</dim>
					<dim>256</dim>
					<dim>1</dim>
					<dim>1</dim>
				</port>
			</input>
			<output>
				<port id="1">
					<dim>400</dim>
					<dim>256</dim>
					<dim>1</dim>
					<dim>1</dim>
				</port>
			</output>
		</layer>
		<layer id="182" name="res_layer2/branch2/conv2c_bn/conv2c_bn_moments/SquaredDifference/add_/Broadcast/2695" precision="FP32" type="Tile">
			<data axis="3" tiles="300"/>
			<input>
				<port id="0">
					<dim>400</dim>
					<dim>256</dim>
					<dim>1</dim>
					<dim>1</dim>
				</port>
			</input>
			<output>
				<port id="1">
					<dim>400</dim>
					<dim>256</dim>
					<dim>1</dim>
					<dim>300</dim>
				</port>
			</output>
		</layer>
		<layer id="183" name="res_layer2/branch2/conv2c_bn/conv2c_bn_moments/SquaredDifference/add_" precision="FP32" type="Eltwise">
			<data operation="sum"/>
			<input>
				<port id="0">
					<dim>400</dim>
					<dim>256</dim>
					<dim>1</dim>
					<dim>300</dim>
				</port>
				<port id="1">
					<dim>400</dim>
					<dim>256</dim>
					<dim>1</dim>
					<dim>300</dim>
				</port>
			</input>
			<output>
				<port id="2">
					<dim>400</dim>
					<dim>256</dim>
					<dim>1</dim>
					<dim>300</dim>
				</port>
			</output>
		</layer>
		<layer id="184" name="res_layer2/branch2/conv2c_bn/conv2c_bn_moments/SquaredDifference/squared_" precision="FP32" type="Power">
			<data power="2" scale="1" shift="0"/>
			<input>
				<port id="0">
					<dim>400</dim>
					<dim>256</dim>
					<dim>1</dim>
					<dim>300</dim>
				</port>
			</input>
			<output>
				<port id="1">
					<dim>400</dim>
					<dim>256</dim>
					<dim>1</dim>
					<dim>300</dim>
				</port>
			</output>
		</layer>
		<layer id="185" name="res_layer2/branch2/conv2c_bn/conv2c_bn_moments/variance" precision="FP32" type="Pooling">
			<data exclude-pad="true" kernel="400,1,300" pads_begin="0,0,0" pads_end="0,0,0" pool-method="avg" rounding-type="ceil" strides="1,1,1"/>
			<input>
				<port id="0">
					<dim>400</dim>
					<dim>256</dim>
					<dim>1</dim>
					<dim>300</dim>
				</port>
			</input>
			<output>
				<port id="1">
					<dim>1</dim>
					<dim>256</dim>
					<dim>1</dim>
					<dim>1</dim>
				</port>
			</output>
		</layer>
		<layer id="186" name="res_layer2/branch2/conv2c_bn/conv2c_bn_moments/Squeeze_1/DimData_const" precision="FP32" type="Const">
			<output>
				<port id="1">
					<dim>1</dim>
				</port>
			</output>
			<blobs>
				<custom offset="1040" size="4"/>
			</blobs>
		</layer>
		<layer id="187" name="res_layer2/branch2/conv2c_bn/conv2c_bn_moments/Squeeze_1" precision="FP32" type="Reshape">
			<input>
				<port id="0">
					<dim>1</dim>
					<dim>256</dim>
					<dim>1</dim>
					<dim>1</dim>
				</port>
				<port id="1">
					<dim>1</dim>
				</port>
			</input>
			<output>
				<port id="2">
					<dim>256</dim>
				</port>
			</output>
		</layer>
		<layer id="188" name="res_layer2/branch2/conv2c_bn/batchnorm/add" precision="FP32" type="Power">
			<data power="1" scale="1" shift="9.999999747378752e-06"/>
			<input>
				<port id="0">
					<dim>256</dim>
				</port>
			</input>
			<output>
				<port id="1">
					<dim>256</dim>
				</port>
			</output>
		</layer>
		<layer id="189" name="res_layer2/branch2/conv2c_bn/batchnorm/Rsqrt" precision="FP32" type="Power">
			<data power="-0.5" scale="1" shift="0"/>
			<input>
				<port id="0">
					<dim>256</dim>
				</port>
			</input>
			<output>
				<port id="1">
					<dim>256</dim>
				</port>
			</output>
		</layer>
		<layer id="190" name="ScaleShift/res_layer2/branch2/conv2c_bn/batchnorm/mul" precision="FP32" type="ScaleShift">
			<input>
				<port id="0">
					<dim>256</dim>
				</port>
			</input>
			<output>
				<port id="3">
					<dim>256</dim>
				</port>
			</output>
			<blobs>
				<weights offset="2637860" size="1024"/>
				<biases offset="2068" size="1024"/>
			</blobs>
		</layer>
		<layer id="191" name="res_layer2/branch2/conv2c_bn/batchnorm/mul/Output_0/Data_/Broadcast/DimData_const" precision="FP32" type="Const">
			<output>
				<port id="1">
					<dim>4</dim>
				</port>
			</output>
			<blobs>
				<custom offset="3092" size="16"/>
			</blobs>
		</layer>
		<layer id="192" name="res_layer2/branch2/conv2c_bn/batchnorm/mul/Output_0/Data_/Broadcast" precision="FP32" type="Reshape">
			<input>
				<port id="0">
					<dim>256</dim>
				</port>
				<port id="1">
					<dim>4</dim>
				</port>
			</input>
			<output>
				<port id="2">
					<dim>1</dim>
					<dim>256</dim>
					<dim>1</dim>
					<dim>1</dim>
				</port>
			</output>
		</layer>
		<layer id="193" name="res_layer2/branch2/conv2c_bn/batchnorm/mul_1/Broadcast/" precision="FP32" type="Tile">
			<data axis="0" tiles="400"/>
			<input>
				<port id="0">
					<dim>1</dim>
					<dim>256</dim>
					<dim>1</dim>
					<dim>1</dim>
				</port>
			</input>
			<output>
				<port id="1">
					<dim>400</dim>
					<dim>256</dim>
					<dim>1</dim>
					<dim>1</dim>
				</port>
			</output>
		</layer>
		<layer id="194" name="res_layer2/branch2/conv2c_bn/batchnorm/mul_1/Broadcast/2803" precision="FP32" type="Tile">
			<data axis="3" tiles="300"/>
			<input>
				<port id="0">
					<dim>400</dim>
					<dim>256</dim>
					<dim>1</dim>
					<dim>1</dim>
				</port>
			</input>
			<output>
				<port id="1">
					<dim>400</dim>
					<dim>256</dim>
					<dim>1</dim>
					<dim>300</dim>
				</port>
			</output>
		</layer>
		<layer id="195" name="res_layer2/branch2/conv2c_bn/batchnorm/mul_1" precision="FP32" type="Eltwise">
			<data operation="mul"/>
			<input>
				<port id="0">
					<dim>400</dim>
					<dim>256</dim>
					<dim>1</dim>
					<dim>300</dim>
				</port>
				<port id="1">
					<dim>400</dim>
					<dim>256</dim>
					<dim>1</dim>
					<dim>300</dim>
				</port>
			</input>
			<output>
				<port id="2">
					<dim>400</dim>
					<dim>256</dim>
					<dim>1</dim>
					<dim>300</dim>
				</port>
			</output>
		</layer>
		<layer id="196" name="res_layer2/branch2/conv2c_bn/conv2c_bn_moments/Squeeze/DimData_const" precision="FP32" type="Const">
			<output>
				<port id="1">
					<dim>1</dim>
				</port>
			</output>
			<blobs>
				<custom offset="1040" size="4"/>
			</blobs>
		</layer>
		<layer id="197" name="res_layer2/branch2/conv2c_bn/conv2c_bn_moments/Squeeze" precision="FP32" type="Reshape">
			<input>
				<port id="0">
					<dim>1</dim>
					<dim>256</dim>
					<dim>1</dim>
					<dim>1</dim>
				</port>
				<port id="1">
					<dim>1</dim>
				</port>
			</input>
			<output>
				<port id="2">
					<dim>256</dim>
				</port>
			</output>
		</layer>
		<layer id="198" name="res_layer2/branch2/conv2c_bn/batchnorm/mul_2" precision="FP32" type="Eltwise">
			<data operation="mul"/>
			<input>
				<port id="0">
					<dim>256</dim>
				</port>
				<port id="1">
					<dim>256</dim>
				</port>
			</input>
			<output>
				<port id="2">
					<dim>256</dim>
				</port>
			</output>
		</layer>
		<layer id="199" name="res_layer2/branch2/conv2c_bn/batchnorm/sub/negate_" precision="FP32" type="Power">
			<data power="1" scale="-1" shift="0"/>
			<input>
				<port id="0">
					<dim>256</dim>
				</port>
			</input>
			<output>
				<port id="1">
					<dim>256</dim>
				</port>
			</output>
		</layer>
		<layer id="200" name="ScaleShift/res_layer2/branch2/conv2c_bn/batchnorm/sub/add_" precision="FP32" type="ScaleShift">
			<input>
				<port id="0">
					<dim>256</dim>
				</port>
			</input>
			<output>
				<port id="3">
					<dim>256</dim>
				</port>
			</output>
			<blobs>
				<weights offset="3108" size="1024"/>
				<biases offset="2638884" size="1024"/>
			</blobs>
		</layer>
		<layer id="201" name="res_layer2/branch2/conv2c_bn/batchnorm/sub/add_/Output_0/Data_/Broadcast/DimData_const" precision="FP32" type="Const">
			<output>
				<port id="1">
					<dim>4</dim>
				</port>
			</output>
			<blobs>
				<custom offset="3092" size="16"/>
			</blobs>
		</layer>
		<layer id="202" name="res_layer2/branch2/conv2c_bn/batchnorm/sub/add_/Output_0/Data_/Broadcast" precision="FP32" type="Reshape">
			<input>
				<port id="0">
					<dim>256</dim>
				</port>
				<port id="1">
					<dim>4</dim>
				</port>
			</input>
			<output>
				<port id="2">
					<dim>1</dim>
					<dim>256</dim>
					<dim>1</dim>
					<dim>1</dim>
				</port>
			</output>
		</layer>
		<layer id="203" name="res_layer2/branch2/conv2c_bn/batchnorm/add_1/Broadcast/" precision="FP32" type="Tile">
			<data axis="0" tiles="400"/>
			<input>
				<port id="0">
					<dim>1</dim>
					<dim>256</dim>
					<dim>1</dim>
					<dim>1</dim>
				</port>
			</input>
			<output>
				<port id="1">
					<dim>400</dim>
					<dim>256</dim>
					<dim>1</dim>
					<dim>1</dim>
				</port>
			</output>
		</layer>
		<layer id="204" name="res_layer2/branch2/conv2c_bn/batchnorm/add_1/Broadcast/2779" precision="FP32" type="Tile">
			<data axis="3" tiles="300"/>
			<input>
				<port id="0">
					<dim>400</dim>
					<dim>256</dim>
					<dim>1</dim>
					<dim>1</dim>
				</port>
			</input>
			<output>
				<port id="1">
					<dim>400</dim>
					<dim>256</dim>
					<dim>1</dim>
					<dim>300</dim>
				</port>
			</output>
		</layer>
		<layer id="205" name="res_layer2/branch2/conv2c_bn/batchnorm/add_1" precision="FP32" type="Eltwise">
			<data operation="sum"/>
			<input>
				<port id="0">
					<dim>400</dim>
					<dim>256</dim>
					<dim>1</dim>
					<dim>300</dim>
				</port>
				<port id="1">
					<dim>400</dim>
					<dim>256</dim>
					<dim>1</dim>
					<dim>300</dim>
				</port>
			</input>
			<output>
				<port id="2">
					<dim>400</dim>
					<dim>256</dim>
					<dim>1</dim>
					<dim>300</dim>
				</port>
			</output>
		</layer>
		<layer id="206" name="res_layer2/plus/add" precision="FP32" type="Eltwise">
			<data operation="sum"/>
			<input>
				<port id="0">
					<dim>400</dim>
					<dim>256</dim>
					<dim>1</dim>
					<dim>300</dim>
				</port>
				<port id="1">
					<dim>400</dim>
					<dim>256</dim>
					<dim>1</dim>
					<dim>300</dim>
				</port>
			</input>
			<output>
				<port id="2">
					<dim>400</dim>
					<dim>256</dim>
					<dim>1</dim>
					<dim>300</dim>
				</port>
			</output>
		</layer>
		<layer id="207" name="res_layer2/plus/final_relu" precision="FP32" type="ReLU">
			<input>
				<port id="0">
					<dim>400</dim>
					<dim>256</dim>
					<dim>1</dim>
					<dim>300</dim>
				</port>
			</input>
			<output>
				<port id="1">
					<dim>400</dim>
					<dim>256</dim>
					<dim>1</dim>
					<dim>300</dim>
				</port>
			</output>
		</layer>
		<layer id="208" name="res_layer3/branch1/conv1/conv1" precision="FP32" type="Convolution">
			<data auto_pad="same_upper" dilations="1,1" group="1" kernel="1,1" output="256" pads_begin="0,0" pads_end="0,0" strides="1,1"/>
			<input>
				<port id="0">
					<dim>400</dim>
					<dim>256</dim>
					<dim>1</dim>
					<dim>300</dim>
				</port>
			</input>
			<output>
				<port id="2">
					<dim>400</dim>
					<dim>256</dim>
					<dim>1</dim>
					<dim>300</dim>
				</port>
			</output>
			<blobs>
				<weights offset="2639908" size="262144"/>
			</blobs>
		</layer>
		<layer id="209" name="res_layer3/branch2/conv2a/conv2a" precision="FP32" type="Convolution">
			<data auto_pad="same_upper" dilations="1,1" group="1" kernel="1,1" output="256" pads_begin="0,0" pads_end="0,0" strides="1,1"/>
			<input>
				<port id="0">
					<dim>400</dim>
					<dim>256</dim>
					<dim>1</dim>
					<dim>300</dim>
				</port>
			</input>
			<output>
				<port id="2">
					<dim>400</dim>
					<dim>256</dim>
					<dim>1</dim>
					<dim>300</dim>
				</port>
			</output>
			<blobs>
				<weights offset="2902052" size="262144"/>
			</blobs>
		</layer>
		<layer id="210" name="res_layer3/branch2/conv2a_bn/conv2a_bn_moments/mean" precision="FP32" type="Pooling">
			<data exclude-pad="true" kernel="400,1,300" pads_begin="0,0,0" pads_end="0,0,0" pool-method="avg" rounding-type="ceil" strides="1,1,1"/>
			<input>
				<port id="0">
					<dim>400</dim>
					<dim>256</dim>
					<dim>1</dim>
					<dim>300</dim>
				</port>
			</input>
			<output>
				<port id="1">
					<dim>1</dim>
					<dim>256</dim>
					<dim>1</dim>
					<dim>1</dim>
				</port>
			</output>
		</layer>
		<layer id="211" name="res_layer3/branch2/conv2a_bn/conv2a_bn_moments/SquaredDifference/negate_" precision="FP32" type="Power">
			<data power="1" scale="-1" shift="0"/>
			<input>
				<port id="0">
					<dim>1</dim>
					<dim>256</dim>
					<dim>1</dim>
					<dim>1</dim>
				</port>
			</input>
			<output>
				<port id="1">
					<dim>1</dim>
					<dim>256</dim>
					<dim>1</dim>
					<dim>1</dim>
				</port>
			</output>
		</layer>
		<layer id="212" name="res_layer3/branch2/conv2a_bn/conv2a_bn_moments/SquaredDifference/add_/Broadcast/" precision="FP32" type="Tile">
			<data axis="0" tiles="400"/>
			<input>
				<port id="0">
					<dim>1</dim>
					<dim>256</dim>
					<dim>1</dim>
					<dim>1</dim>
				</port>
			</input>
			<output>
				<port id="1">
					<dim>400</dim>
					<dim>256</dim>
					<dim>1</dim>
					<dim>1</dim>
				</port>
			</output>
		</layer>
		<layer id="213" name="res_layer3/branch2/conv2a_bn/conv2a_bn_moments/SquaredDifference/add_/Broadcast/2759" precision="FP32" type="Tile">
			<data axis="3" tiles="300"/>
			<input>
				<port id="0">
					<dim>400</dim>
					<dim>256</dim>
					<dim>1</dim>
					<dim>1</dim>
				</port>
			</input>
			<output>
				<port id="1">
					<dim>400</dim>
					<dim>256</dim>
					<dim>1</dim>
					<dim>300</dim>
				</port>
			</output>
		</layer>
		<layer id="214" name="res_layer3/branch2/conv2a_bn/conv2a_bn_moments/SquaredDifference/add_" precision="FP32" type="Eltwise">
			<data operation="sum"/>
			<input>
				<port id="0">
					<dim>400</dim>
					<dim>256</dim>
					<dim>1</dim>
					<dim>300</dim>
				</port>
				<port id="1">
					<dim>400</dim>
					<dim>256</dim>
					<dim>1</dim>
					<dim>300</dim>
				</port>
			</input>
			<output>
				<port id="2">
					<dim>400</dim>
					<dim>256</dim>
					<dim>1</dim>
					<dim>300</dim>
				</port>
			</output>
		</layer>
		<layer id="215" name="res_layer3/branch2/conv2a_bn/conv2a_bn_moments/SquaredDifference/squared_" precision="FP32" type="Power">
			<data power="2" scale="1" shift="0"/>
			<input>
				<port id="0">
					<dim>400</dim>
					<dim>256</dim>
					<dim>1</dim>
					<dim>300</dim>
				</port>
			</input>
			<output>
				<port id="1">
					<dim>400</dim>
					<dim>256</dim>
					<dim>1</dim>
					<dim>300</dim>
				</port>
			</output>
		</layer>
		<layer id="216" name="res_layer3/branch2/conv2a_bn/conv2a_bn_moments/variance" precision="FP32" type="Pooling">
			<data exclude-pad="true" kernel="400,1,300" pads_begin="0,0,0" pads_end="0,0,0" pool-method="avg" rounding-type="ceil" strides="1,1,1"/>
			<input>
				<port id="0">
					<dim>400</dim>
					<dim>256</dim>
					<dim>1</dim>
					<dim>300</dim>
				</port>
			</input>
			<output>
				<port id="1">
					<dim>1</dim>
					<dim>256</dim>
					<dim>1</dim>
					<dim>1</dim>
				</port>
			</output>
		</layer>
		<layer id="217" name="res_layer3/branch2/conv2a_bn/conv2a_bn_moments/Squeeze_1/DimData_const" precision="FP32" type="Const">
			<output>
				<port id="1">
					<dim>1</dim>
				</port>
			</output>
			<blobs>
				<custom offset="1040" size="4"/>
			</blobs>
		</layer>
		<layer id="218" name="res_layer3/branch2/conv2a_bn/conv2a_bn_moments/Squeeze_1" precision="FP32" type="Reshape">
			<input>
				<port id="0">
					<dim>1</dim>
					<dim>256</dim>
					<dim>1</dim>
					<dim>1</dim>
				</port>
				<port id="1">
					<dim>1</dim>
				</port>
			</input>
			<output>
				<port id="2">
					<dim>256</dim>
				</port>
			</output>
		</layer>
		<layer id="219" name="res_layer3/branch2/conv2a_bn/batchnorm/add" precision="FP32" type="Power">
			<data power="1" scale="1" shift="9.999999747378752e-06"/>
			<input>
				<port id="0">
					<dim>256</dim>
				</port>
			</input>
			<output>
				<port id="1">
					<dim>256</dim>
				</port>
			</output>
		</layer>
		<layer id="220" name="res_layer3/branch2/conv2a_bn/batchnorm/Rsqrt" precision="FP32" type="Power">
			<data power="-0.5" scale="1" shift="0"/>
			<input>
				<port id="0">
					<dim>256</dim>
				</port>
			</input>
			<output>
				<port id="1">
					<dim>256</dim>
				</port>
			</output>
		</layer>
		<layer id="221" name="ScaleShift/res_layer3/branch2/conv2a_bn/batchnorm/mul" precision="FP32" type="ScaleShift">
			<input>
				<port id="0">
					<dim>256</dim>
				</port>
			</input>
			<output>
				<port id="3">
					<dim>256</dim>
				</port>
			</output>
			<blobs>
				<weights offset="3164196" size="1024"/>
				<biases offset="2068" size="1024"/>
			</blobs>
		</layer>
		<layer id="222" name="res_layer3/branch2/conv2a_bn/batchnorm/mul/Output_0/Data_/Broadcast/DimData_const" precision="FP32" type="Const">
			<output>
				<port id="1">
					<dim>4</dim>
				</port>
			</output>
			<blobs>
				<custom offset="3092" size="16"/>
			</blobs>
		</layer>
		<layer id="223" name="res_layer3/branch2/conv2a_bn/batchnorm/mul/Output_0/Data_/Broadcast" precision="FP32" type="Reshape">
			<input>
				<port id="0">
					<dim>256</dim>
				</port>
				<port id="1">
					<dim>4</dim>
				</port>
			</input>
			<output>
				<port id="2">
					<dim>1</dim>
					<dim>256</dim>
					<dim>1</dim>
					<dim>1</dim>
				</port>
			</output>
		</layer>
		<layer id="224" name="res_layer3/branch2/conv2a_bn/batchnorm/mul_1/Broadcast/" precision="FP32" type="Tile">
			<data axis="0" tiles="400"/>
			<input>
				<port id="0">
					<dim>1</dim>
					<dim>256</dim>
					<dim>1</dim>
					<dim>1</dim>
				</port>
			</input>
			<output>
				<port id="1">
					<dim>400</dim>
					<dim>256</dim>
					<dim>1</dim>
					<dim>1</dim>
				</port>
			</output>
		</layer>
		<layer id="225" name="res_layer3/branch2/conv2a_bn/batchnorm/mul_1/Broadcast/2807" precision="FP32" type="Tile">
			<data axis="3" tiles="300"/>
			<input>
				<port id="0">
					<dim>400</dim>
					<dim>256</dim>
					<dim>1</dim>
					<dim>1</dim>
				</port>
			</input>
			<output>
				<port id="1">
					<dim>400</dim>
					<dim>256</dim>
					<dim>1</dim>
					<dim>300</dim>
				</port>
			</output>
		</layer>
		<layer id="226" name="res_layer3/branch2/conv2a_bn/batchnorm/mul_1" precision="FP32" type="Eltwise">
			<data operation="mul"/>
			<input>
				<port id="0">
					<dim>400</dim>
					<dim>256</dim>
					<dim>1</dim>
					<dim>300</dim>
				</port>
				<port id="1">
					<dim>400</dim>
					<dim>256</dim>
					<dim>1</dim>
					<dim>300</dim>
				</port>
			</input>
			<output>
				<port id="2">
					<dim>400</dim>
					<dim>256</dim>
					<dim>1</dim>
					<dim>300</dim>
				</port>
			</output>
		</layer>
		<layer id="227" name="res_layer3/branch2/conv2a_bn/conv2a_bn_moments/Squeeze/DimData_const" precision="FP32" type="Const">
			<output>
				<port id="1">
					<dim>1</dim>
				</port>
			</output>
			<blobs>
				<custom offset="1040" size="4"/>
			</blobs>
		</layer>
		<layer id="228" name="res_layer3/branch2/conv2a_bn/conv2a_bn_moments/Squeeze" precision="FP32" type="Reshape">
			<input>
				<port id="0">
					<dim>1</dim>
					<dim>256</dim>
					<dim>1</dim>
					<dim>1</dim>
				</port>
				<port id="1">
					<dim>1</dim>
				</port>
			</input>
			<output>
				<port id="2">
					<dim>256</dim>
				</port>
			</output>
		</layer>
		<layer id="229" name="res_layer3/branch2/conv2a_bn/batchnorm/mul_2" precision="FP32" type="Eltwise">
			<data operation="mul"/>
			<input>
				<port id="0">
					<dim>256</dim>
				</port>
				<port id="1">
					<dim>256</dim>
				</port>
			</input>
			<output>
				<port id="2">
					<dim>256</dim>
				</port>
			</output>
		</layer>
		<layer id="230" name="res_layer3/branch2/conv2a_bn/batchnorm/sub/negate_" precision="FP32" type="Power">
			<data power="1" scale="-1" shift="0"/>
			<input>
				<port id="0">
					<dim>256</dim>
				</port>
			</input>
			<output>
				<port id="1">
					<dim>256</dim>
				</port>
			</output>
		</layer>
		<layer id="231" name="ScaleShift/res_layer3/branch2/conv2a_bn/batchnorm/sub/add_" precision="FP32" type="ScaleShift">
			<input>
				<port id="0">
					<dim>256</dim>
				</port>
			</input>
			<output>
				<port id="3">
					<dim>256</dim>
				</port>
			</output>
			<blobs>
				<weights offset="3108" size="1024"/>
				<biases offset="3165220" size="1024"/>
			</blobs>
		</layer>
		<layer id="232" name="res_layer3/branch2/conv2a_bn/batchnorm/sub/add_/Output_0/Data_/Broadcast/DimData_const" precision="FP32" type="Const">
			<output>
				<port id="1">
					<dim>4</dim>
				</port>
			</output>
			<blobs>
				<custom offset="3092" size="16"/>
			</blobs>
		</layer>
		<layer id="233" name="res_layer3/branch2/conv2a_bn/batchnorm/sub/add_/Output_0/Data_/Broadcast" precision="FP32" type="Reshape">
			<input>
				<port id="0">
					<dim>256</dim>
				</port>
				<port id="1">
					<dim>4</dim>
				</port>
			</input>
			<output>
				<port id="2">
					<dim>1</dim>
					<dim>256</dim>
					<dim>1</dim>
					<dim>1</dim>
				</port>
			</output>
		</layer>
		<layer id="234" name="res_layer3/branch2/conv2a_bn/batchnorm/add_1/Broadcast/" precision="FP32" type="Tile">
			<data axis="0" tiles="400"/>
			<input>
				<port id="0">
					<dim>1</dim>
					<dim>256</dim>
					<dim>1</dim>
					<dim>1</dim>
				</port>
			</input>
			<output>
				<port id="1">
					<dim>400</dim>
					<dim>256</dim>
					<dim>1</dim>
					<dim>1</dim>
				</port>
			</output>
		</layer>
		<layer id="235" name="res_layer3/branch2/conv2a_bn/batchnorm/add_1/Broadcast/2723" precision="FP32" type="Tile">
			<data axis="3" tiles="300"/>
			<input>
				<port id="0">
					<dim>400</dim>
					<dim>256</dim>
					<dim>1</dim>
					<dim>1</dim>
				</port>
			</input>
			<output>
				<port id="1">
					<dim>400</dim>
					<dim>256</dim>
					<dim>1</dim>
					<dim>300</dim>
				</port>
			</output>
		</layer>
		<layer id="236" name="res_layer3/branch2/conv2a_bn/batchnorm/add_1" precision="FP32" type="Eltwise">
			<data operation="sum"/>
			<input>
				<port id="0">
					<dim>400</dim>
					<dim>256</dim>
					<dim>1</dim>
					<dim>300</dim>
				</port>
				<port id="1">
					<dim>400</dim>
					<dim>256</dim>
					<dim>1</dim>
					<dim>300</dim>
				</port>
			</input>
			<output>
				<port id="2">
					<dim>400</dim>
					<dim>256</dim>
					<dim>1</dim>
					<dim>300</dim>
				</port>
			</output>
		</layer>
		<layer id="237" name="res_layer3/branch2/conv2a_relu/relu" precision="FP32" type="ReLU">
			<input>
				<port id="0">
					<dim>400</dim>
					<dim>256</dim>
					<dim>1</dim>
					<dim>300</dim>
				</port>
			</input>
			<output>
				<port id="1">
					<dim>400</dim>
					<dim>256</dim>
					<dim>1</dim>
					<dim>300</dim>
				</port>
			</output>
		</layer>
		<layer id="238" name="res_layer3/branch2/conv2b/conv2b" precision="FP32" type="Convolution">
			<data auto_pad="same_upper" dilations="1,1" group="1" kernel="1,3" output="256" pads_begin="0,1" pads_end="0,1" strides="1,1"/>
			<input>
				<port id="0">
					<dim>400</dim>
					<dim>256</dim>
					<dim>1</dim>
					<dim>300</dim>
				</port>
			</input>
			<output>
				<port id="2">
					<dim>400</dim>
					<dim>256</dim>
					<dim>1</dim>
					<dim>300</dim>
				</port>
			</output>
			<blobs>
				<weights offset="3166244" size="786432"/>
			</blobs>
		</layer>
		<layer id="239" name="res_layer3/branch2/conv2b_bn/conv2b_bn_moments/mean" precision="FP32" type="Pooling">
			<data exclude-pad="true" kernel="400,1,300" pads_begin="0,0,0" pads_end="0,0,0" pool-method="avg" rounding-type="ceil" strides="1,1,1"/>
			<input>
				<port id="0">
					<dim>400</dim>
					<dim>256</dim>
					<dim>1</dim>
					<dim>300</dim>
				</port>
			</input>
			<output>
				<port id="1">
					<dim>1</dim>
					<dim>256</dim>
					<dim>1</dim>
					<dim>1</dim>
				</port>
			</output>
		</layer>
		<layer id="240" name="res_layer3/branch2/conv2b_bn/conv2b_bn_moments/SquaredDifference/negate_" precision="FP32" type="Power">
			<data power="1" scale="-1" shift="0"/>
			<input>
				<port id="0">
					<dim>1</dim>
					<dim>256</dim>
					<dim>1</dim>
					<dim>1</dim>
				</port>
			</input>
			<output>
				<port id="1">
					<dim>1</dim>
					<dim>256</dim>
					<dim>1</dim>
					<dim>1</dim>
				</port>
			</output>
		</layer>
		<layer id="241" name="res_layer3/branch2/conv2b_bn/conv2b_bn_moments/SquaredDifference/add_/Broadcast/" precision="FP32" type="Tile">
			<data axis="0" tiles="400"/>
			<input>
				<port id="0">
					<dim>1</dim>
					<dim>256</dim>
					<dim>1</dim>
					<dim>1</dim>
				</port>
			</input>
			<output>
				<port id="1">
					<dim>400</dim>
					<dim>256</dim>
					<dim>1</dim>
					<dim>1</dim>
				</port>
			</output>
		</layer>
		<layer id="242" name="res_layer3/branch2/conv2b_bn/conv2b_bn_moments/SquaredDifference/add_/Broadcast/2711" precision="FP32" type="Tile">
			<data axis="3" tiles="300"/>
			<input>
				<port id="0">
					<dim>400</dim>
					<dim>256</dim>
					<dim>1</dim>
					<dim>1</dim>
				</port>
			</input>
			<output>
				<port id="1">
					<dim>400</dim>
					<dim>256</dim>
					<dim>1</dim>
					<dim>300</dim>
				</port>
			</output>
		</layer>
		<layer id="243" name="res_layer3/branch2/conv2b_bn/conv2b_bn_moments/SquaredDifference/add_" precision="FP32" type="Eltwise">
			<data operation="sum"/>
			<input>
				<port id="0">
					<dim>400</dim>
					<dim>256</dim>
					<dim>1</dim>
					<dim>300</dim>
				</port>
				<port id="1">
					<dim>400</dim>
					<dim>256</dim>
					<dim>1</dim>
					<dim>300</dim>
				</port>
			</input>
			<output>
				<port id="2">
					<dim>400</dim>
					<dim>256</dim>
					<dim>1</dim>
					<dim>300</dim>
				</port>
			</output>
		</layer>
		<layer id="244" name="res_layer3/branch2/conv2b_bn/conv2b_bn_moments/SquaredDifference/squared_" precision="FP32" type="Power">
			<data power="2" scale="1" shift="0"/>
			<input>
				<port id="0">
					<dim>400</dim>
					<dim>256</dim>
					<dim>1</dim>
					<dim>300</dim>
				</port>
			</input>
			<output>
				<port id="1">
					<dim>400</dim>
					<dim>256</dim>
					<dim>1</dim>
					<dim>300</dim>
				</port>
			</output>
		</layer>
		<layer id="245" name="res_layer3/branch2/conv2b_bn/conv2b_bn_moments/variance" precision="FP32" type="Pooling">
			<data exclude-pad="true" kernel="400,1,300" pads_begin="0,0,0" pads_end="0,0,0" pool-method="avg" rounding-type="ceil" strides="1,1,1"/>
			<input>
				<port id="0">
					<dim>400</dim>
					<dim>256</dim>
					<dim>1</dim>
					<dim>300</dim>
				</port>
			</input>
			<output>
				<port id="1">
					<dim>1</dim>
					<dim>256</dim>
					<dim>1</dim>
					<dim>1</dim>
				</port>
			</output>
		</layer>
		<layer id="246" name="res_layer3/branch2/conv2b_bn/conv2b_bn_moments/Squeeze_1/DimData_const" precision="FP32" type="Const">
			<output>
				<port id="1">
					<dim>1</dim>
				</port>
			</output>
			<blobs>
				<custom offset="1040" size="4"/>
			</blobs>
		</layer>
		<layer id="247" name="res_layer3/branch2/conv2b_bn/conv2b_bn_moments/Squeeze_1" precision="FP32" type="Reshape">
			<input>
				<port id="0">
					<dim>1</dim>
					<dim>256</dim>
					<dim>1</dim>
					<dim>1</dim>
				</port>
				<port id="1">
					<dim>1</dim>
				</port>
			</input>
			<output>
				<port id="2">
					<dim>256</dim>
				</port>
			</output>
		</layer>
		<layer id="248" name="res_layer3/branch2/conv2b_bn/batchnorm/add" precision="FP32" type="Power">
			<data power="1" scale="1" shift="9.999999747378752e-06"/>
			<input>
				<port id="0">
					<dim>256</dim>
				</port>
			</input>
			<output>
				<port id="1">
					<dim>256</dim>
				</port>
			</output>
		</layer>
		<layer id="249" name="res_layer3/branch2/conv2b_bn/batchnorm/Rsqrt" precision="FP32" type="Power">
			<data power="-0.5" scale="1" shift="0"/>
			<input>
				<port id="0">
					<dim>256</dim>
				</port>
			</input>
			<output>
				<port id="1">
					<dim>256</dim>
				</port>
			</output>
		</layer>
		<layer id="250" name="ScaleShift/res_layer3/branch2/conv2b_bn/batchnorm/mul" precision="FP32" type="ScaleShift">
			<input>
				<port id="0">
					<dim>256</dim>
				</port>
			</input>
			<output>
				<port id="3">
					<dim>256</dim>
				</port>
			</output>
			<blobs>
				<weights offset="3952676" size="1024"/>
				<biases offset="2068" size="1024"/>
			</blobs>
		</layer>
		<layer id="251" name="res_layer3/branch2/conv2b_bn/batchnorm/mul/Output_0/Data_/Broadcast/DimData_const" precision="FP32" type="Const">
			<output>
				<port id="1">
					<dim>4</dim>
				</port>
			</output>
			<blobs>
				<custom offset="3092" size="16"/>
			</blobs>
		</layer>
		<layer id="252" name="res_layer3/branch2/conv2b_bn/batchnorm/mul/Output_0/Data_/Broadcast" precision="FP32" type="Reshape">
			<input>
				<port id="0">
					<dim>256</dim>
				</port>
				<port id="1">
					<dim>4</dim>
				</port>
			</input>
			<output>
				<port id="2">
					<dim>1</dim>
					<dim>256</dim>
					<dim>1</dim>
					<dim>1</dim>
				</port>
			</output>
		</layer>
		<layer id="253" name="res_layer3/branch2/conv2b_bn/batchnorm/mul_1/Broadcast/" precision="FP32" type="Tile">
			<data axis="0" tiles="400"/>
			<input>
				<port id="0">
					<dim>1</dim>
					<dim>256</dim>
					<dim>1</dim>
					<dim>1</dim>
				</port>
			</input>
			<output>
				<port id="1">
					<dim>400</dim>
					<dim>256</dim>
					<dim>1</dim>
					<dim>1</dim>
				</port>
			</output>
		</layer>
		<layer id="254" name="res_layer3/branch2/conv2b_bn/batchnorm/mul_1/Broadcast/2731" precision="FP32" type="Tile">
			<data axis="3" tiles="300"/>
			<input>
				<port id="0">
					<dim>400</dim>
					<dim>256</dim>
					<dim>1</dim>
					<dim>1</dim>
				</port>
			</input>
			<output>
				<port id="1">
					<dim>400</dim>
					<dim>256</dim>
					<dim>1</dim>
					<dim>300</dim>
				</port>
			</output>
		</layer>
		<layer id="255" name="res_layer3/branch2/conv2b_bn/batchnorm/mul_1" precision="FP32" type="Eltwise">
			<data operation="mul"/>
			<input>
				<port id="0">
					<dim>400</dim>
					<dim>256</dim>
					<dim>1</dim>
					<dim>300</dim>
				</port>
				<port id="1">
					<dim>400</dim>
					<dim>256</dim>
					<dim>1</dim>
					<dim>300</dim>
				</port>
			</input>
			<output>
				<port id="2">
					<dim>400</dim>
					<dim>256</dim>
					<dim>1</dim>
					<dim>300</dim>
				</port>
			</output>
		</layer>
		<layer id="256" name="res_layer3/branch2/conv2b_bn/conv2b_bn_moments/Squeeze/DimData_const" precision="FP32" type="Const">
			<output>
				<port id="1">
					<dim>1</dim>
				</port>
			</output>
			<blobs>
				<custom offset="1040" size="4"/>
			</blobs>
		</layer>
		<layer id="257" name="res_layer3/branch2/conv2b_bn/conv2b_bn_moments/Squeeze" precision="FP32" type="Reshape">
			<input>
				<port id="0">
					<dim>1</dim>
					<dim>256</dim>
					<dim>1</dim>
					<dim>1</dim>
				</port>
				<port id="1">
					<dim>1</dim>
				</port>
			</input>
			<output>
				<port id="2">
					<dim>256</dim>
				</port>
			</output>
		</layer>
		<layer id="258" name="res_layer3/branch2/conv2b_bn/batchnorm/mul_2" precision="FP32" type="Eltwise">
			<data operation="mul"/>
			<input>
				<port id="0">
					<dim>256</dim>
				</port>
				<port id="1">
					<dim>256</dim>
				</port>
			</input>
			<output>
				<port id="2">
					<dim>256</dim>
				</port>
			</output>
		</layer>
		<layer id="259" name="res_layer3/branch2/conv2b_bn/batchnorm/sub/negate_" precision="FP32" type="Power">
			<data power="1" scale="-1" shift="0"/>
			<input>
				<port id="0">
					<dim>256</dim>
				</port>
			</input>
			<output>
				<port id="1">
					<dim>256</dim>
				</port>
			</output>
		</layer>
		<layer id="260" name="ScaleShift/res_layer3/branch2/conv2b_bn/batchnorm/sub/add_" precision="FP32" type="ScaleShift">
			<input>
				<port id="0">
					<dim>256</dim>
				</port>
			</input>
			<output>
				<port id="3">
					<dim>256</dim>
				</port>
			</output>
			<blobs>
				<weights offset="3108" size="1024"/>
				<biases offset="3953700" size="1024"/>
			</blobs>
		</layer>
		<layer id="261" name="res_layer3/branch2/conv2b_bn/batchnorm/sub/add_/Output_0/Data_/Broadcast/DimData_const" precision="FP32" type="Const">
			<output>
				<port id="1">
					<dim>4</dim>
				</port>
			</output>
			<blobs>
				<custom offset="3092" size="16"/>
			</blobs>
		</layer>
		<layer id="262" name="res_layer3/branch2/conv2b_bn/batchnorm/sub/add_/Output_0/Data_/Broadcast" precision="FP32" type="Reshape">
			<input>
				<port id="0">
					<dim>256</dim>
				</port>
				<port id="1">
					<dim>4</dim>
				</port>
			</input>
			<output>
				<port id="2">
					<dim>1</dim>
					<dim>256</dim>
					<dim>1</dim>
					<dim>1</dim>
				</port>
			</output>
		</layer>
		<layer id="263" name="res_layer3/branch2/conv2b_bn/batchnorm/add_1/Broadcast/" precision="FP32" type="Tile">
			<data axis="0" tiles="400"/>
			<input>
				<port id="0">
					<dim>1</dim>
					<dim>256</dim>
					<dim>1</dim>
					<dim>1</dim>
				</port>
			</input>
			<output>
				<port id="1">
					<dim>400</dim>
					<dim>256</dim>
					<dim>1</dim>
					<dim>1</dim>
				</port>
			</output>
		</layer>
		<layer id="264" name="res_layer3/branch2/conv2b_bn/batchnorm/add_1/Broadcast/2763" precision="FP32" type="Tile">
			<data axis="3" tiles="300"/>
			<input>
				<port id="0">
					<dim>400</dim>
					<dim>256</dim>
					<dim>1</dim>
					<dim>1</dim>
				</port>
			</input>
			<output>
				<port id="1">
					<dim>400</dim>
					<dim>256</dim>
					<dim>1</dim>
					<dim>300</dim>
				</port>
			</output>
		</layer>
		<layer id="265" name="res_layer3/branch2/conv2b_bn/batchnorm/add_1" precision="FP32" type="Eltwise">
			<data operation="sum"/>
			<input>
				<port id="0">
					<dim>400</dim>
					<dim>256</dim>
					<dim>1</dim>
					<dim>300</dim>
				</port>
				<port id="1">
					<dim>400</dim>
					<dim>256</dim>
					<dim>1</dim>
					<dim>300</dim>
				</port>
			</input>
			<output>
				<port id="2">
					<dim>400</dim>
					<dim>256</dim>
					<dim>1</dim>
					<dim>300</dim>
				</port>
			</output>
		</layer>
		<layer id="266" name="res_layer3/branch2/conv2b_relu/relu" precision="FP32" type="ReLU">
			<input>
				<port id="0">
					<dim>400</dim>
					<dim>256</dim>
					<dim>1</dim>
					<dim>300</dim>
				</port>
			</input>
			<output>
				<port id="1">
					<dim>400</dim>
					<dim>256</dim>
					<dim>1</dim>
					<dim>300</dim>
				</port>
			</output>
		</layer>
		<layer id="267" name="res_layer3/branch2/conv2c/conv2c" precision="FP32" type="Convolution">
			<data auto_pad="same_upper" dilations="1,1" group="1" kernel="1,1" output="256" pads_begin="0,0" pads_end="0,0" strides="1,1"/>
			<input>
				<port id="0">
					<dim>400</dim>
					<dim>256</dim>
					<dim>1</dim>
					<dim>300</dim>
				</port>
			</input>
			<output>
				<port id="2">
					<dim>400</dim>
					<dim>256</dim>
					<dim>1</dim>
					<dim>300</dim>
				</port>
			</output>
			<blobs>
				<weights offset="3954724" size="262144"/>
			</blobs>
		</layer>
		<layer id="268" name="res_layer3/branch2/conv2c_bn/conv2c_bn_moments/mean" precision="FP32" type="Pooling">
			<data exclude-pad="true" kernel="400,1,300" pads_begin="0,0,0" pads_end="0,0,0" pool-method="avg" rounding-type="ceil" strides="1,1,1"/>
			<input>
				<port id="0">
					<dim>400</dim>
					<dim>256</dim>
					<dim>1</dim>
					<dim>300</dim>
				</port>
			</input>
			<output>
				<port id="1">
					<dim>1</dim>
					<dim>256</dim>
					<dim>1</dim>
					<dim>1</dim>
				</port>
			</output>
		</layer>
		<layer id="269" name="res_layer3/branch2/conv2c_bn/conv2c_bn_moments/SquaredDifference/negate_" precision="FP32" type="Power">
			<data power="1" scale="-1" shift="0"/>
			<input>
				<port id="0">
					<dim>1</dim>
					<dim>256</dim>
					<dim>1</dim>
					<dim>1</dim>
				</port>
			</input>
			<output>
				<port id="1">
					<dim>1</dim>
					<dim>256</dim>
					<dim>1</dim>
					<dim>1</dim>
				</port>
			</output>
		</layer>
		<layer id="270" name="res_layer3/branch2/conv2c_bn/conv2c_bn_moments/SquaredDifference/add_/Broadcast/" precision="FP32" type="Tile">
			<data axis="0" tiles="400"/>
			<input>
				<port id="0">
					<dim>1</dim>
					<dim>256</dim>
					<dim>1</dim>
					<dim>1</dim>
				</port>
			</input>
			<output>
				<port id="1">
					<dim>400</dim>
					<dim>256</dim>
					<dim>1</dim>
					<dim>1</dim>
				</port>
			</output>
		</layer>
		<layer id="271" name="res_layer3/branch2/conv2c_bn/conv2c_bn_moments/SquaredDifference/add_/Broadcast/2747" precision="FP32" type="Tile">
			<data axis="3" tiles="300"/>
			<input>
				<port id="0">
					<dim>400</dim>
					<dim>256</dim>
					<dim>1</dim>
					<dim>1</dim>
				</port>
			</input>
			<output>
				<port id="1">
					<dim>400</dim>
					<dim>256</dim>
					<dim>1</dim>
					<dim>300</dim>
				</port>
			</output>
		</layer>
		<layer id="272" name="res_layer3/branch2/conv2c_bn/conv2c_bn_moments/SquaredDifference/add_" precision="FP32" type="Eltwise">
			<data operation="sum"/>
			<input>
				<port id="0">
					<dim>400</dim>
					<dim>256</dim>
					<dim>1</dim>
					<dim>300</dim>
				</port>
				<port id="1">
					<dim>400</dim>
					<dim>256</dim>
					<dim>1</dim>
					<dim>300</dim>
				</port>
			</input>
			<output>
				<port id="2">
					<dim>400</dim>
					<dim>256</dim>
					<dim>1</dim>
					<dim>300</dim>
				</port>
			</output>
		</layer>
		<layer id="273" name="res_layer3/branch2/conv2c_bn/conv2c_bn_moments/SquaredDifference/squared_" precision="FP32" type="Power">
			<data power="2" scale="1" shift="0"/>
			<input>
				<port id="0">
					<dim>400</dim>
					<dim>256</dim>
					<dim>1</dim>
					<dim>300</dim>
				</port>
			</input>
			<output>
				<port id="1">
					<dim>400</dim>
					<dim>256</dim>
					<dim>1</dim>
					<dim>300</dim>
				</port>
			</output>
		</layer>
		<layer id="274" name="res_layer3/branch2/conv2c_bn/conv2c_bn_moments/variance" precision="FP32" type="Pooling">
			<data exclude-pad="true" kernel="400,1,300" pads_begin="0,0,0" pads_end="0,0,0" pool-method="avg" rounding-type="ceil" strides="1,1,1"/>
			<input>
				<port id="0">
					<dim>400</dim>
					<dim>256</dim>
					<dim>1</dim>
					<dim>300</dim>
				</port>
			</input>
			<output>
				<port id="1">
					<dim>1</dim>
					<dim>256</dim>
					<dim>1</dim>
					<dim>1</dim>
				</port>
			</output>
		</layer>
		<layer id="275" name="res_layer3/branch2/conv2c_bn/conv2c_bn_moments/Squeeze_1/DimData_const" precision="FP32" type="Const">
			<output>
				<port id="1">
					<dim>1</dim>
				</port>
			</output>
			<blobs>
				<custom offset="1040" size="4"/>
			</blobs>
		</layer>
		<layer id="276" name="res_layer3/branch2/conv2c_bn/conv2c_bn_moments/Squeeze_1" precision="FP32" type="Reshape">
			<input>
				<port id="0">
					<dim>1</dim>
					<dim>256</dim>
					<dim>1</dim>
					<dim>1</dim>
				</port>
				<port id="1">
					<dim>1</dim>
				</port>
			</input>
			<output>
				<port id="2">
					<dim>256</dim>
				</port>
			</output>
		</layer>
		<layer id="277" name="res_layer3/branch2/conv2c_bn/batchnorm/add" precision="FP32" type="Power">
			<data power="1" scale="1" shift="9.999999747378752e-06"/>
			<input>
				<port id="0">
					<dim>256</dim>
				</port>
			</input>
			<output>
				<port id="1">
					<dim>256</dim>
				</port>
			</output>
		</layer>
		<layer id="278" name="res_layer3/branch2/conv2c_bn/batchnorm/Rsqrt" precision="FP32" type="Power">
			<data power="-0.5" scale="1" shift="0"/>
			<input>
				<port id="0">
					<dim>256</dim>
				</port>
			</input>
			<output>
				<port id="1">
					<dim>256</dim>
				</port>
			</output>
		</layer>
		<layer id="279" name="ScaleShift/res_layer3/branch2/conv2c_bn/batchnorm/mul" precision="FP32" type="ScaleShift">
			<input>
				<port id="0">
					<dim>256</dim>
				</port>
			</input>
			<output>
				<port id="3">
					<dim>256</dim>
				</port>
			</output>
			<blobs>
				<weights offset="4216868" size="1024"/>
				<biases offset="2068" size="1024"/>
			</blobs>
		</layer>
		<layer id="280" name="res_layer3/branch2/conv2c_bn/batchnorm/mul/Output_0/Data_/Broadcast/DimData_const" precision="FP32" type="Const">
			<output>
				<port id="1">
					<dim>4</dim>
				</port>
			</output>
			<blobs>
				<custom offset="3092" size="16"/>
			</blobs>
		</layer>
		<layer id="281" name="res_layer3/branch2/conv2c_bn/batchnorm/mul/Output_0/Data_/Broadcast" precision="FP32" type="Reshape">
			<input>
				<port id="0">
					<dim>256</dim>
				</port>
				<port id="1">
					<dim>4</dim>
				</port>
			</input>
			<output>
				<port id="2">
					<dim>1</dim>
					<dim>256</dim>
					<dim>1</dim>
					<dim>1</dim>
				</port>
			</output>
		</layer>
		<layer id="282" name="res_layer3/branch2/conv2c_bn/batchnorm/mul_1/Broadcast/" precision="FP32" type="Tile">
			<data axis="0" tiles="400"/>
			<input>
				<port id="0">
					<dim>1</dim>
					<dim>256</dim>
					<dim>1</dim>
					<dim>1</dim>
				</port>
			</input>
			<output>
				<port id="1">
					<dim>400</dim>
					<dim>256</dim>
					<dim>1</dim>
					<dim>1</dim>
				</port>
			</output>
		</layer>
		<layer id="283" name="res_layer3/branch2/conv2c_bn/batchnorm/mul_1/Broadcast/2755" precision="FP32" type="Tile">
			<data axis="3" tiles="300"/>
			<input>
				<port id="0">
					<dim>400</dim>
					<dim>256</dim>
					<dim>1</dim>
					<dim>1</dim>
				</port>
			</input>
			<output>
				<port id="1">
					<dim>400</dim>
					<dim>256</dim>
					<dim>1</dim>
					<dim>300</dim>
				</port>
			</output>
		</layer>
		<layer id="284" name="res_layer3/branch2/conv2c_bn/batchnorm/mul_1" precision="FP32" type="Eltwise">
			<data operation="mul"/>
			<input>
				<port id="0">
					<dim>400</dim>
					<dim>256</dim>
					<dim>1</dim>
					<dim>300</dim>
				</port>
				<port id="1">
					<dim>400</dim>
					<dim>256</dim>
					<dim>1</dim>
					<dim>300</dim>
				</port>
			</input>
			<output>
				<port id="2">
					<dim>400</dim>
					<dim>256</dim>
					<dim>1</dim>
					<dim>300</dim>
				</port>
			</output>
		</layer>
		<layer id="285" name="res_layer3/branch2/conv2c_bn/conv2c_bn_moments/Squeeze/DimData_const" precision="FP32" type="Const">
			<output>
				<port id="1">
					<dim>1</dim>
				</port>
			</output>
			<blobs>
				<custom offset="1040" size="4"/>
			</blobs>
		</layer>
		<layer id="286" name="res_layer3/branch2/conv2c_bn/conv2c_bn_moments/Squeeze" precision="FP32" type="Reshape">
			<input>
				<port id="0">
					<dim>1</dim>
					<dim>256</dim>
					<dim>1</dim>
					<dim>1</dim>
				</port>
				<port id="1">
					<dim>1</dim>
				</port>
			</input>
			<output>
				<port id="2">
					<dim>256</dim>
				</port>
			</output>
		</layer>
		<layer id="287" name="res_layer3/branch2/conv2c_bn/batchnorm/mul_2" precision="FP32" type="Eltwise">
			<data operation="mul"/>
			<input>
				<port id="0">
					<dim>256</dim>
				</port>
				<port id="1">
					<dim>256</dim>
				</port>
			</input>
			<output>
				<port id="2">
					<dim>256</dim>
				</port>
			</output>
		</layer>
		<layer id="288" name="res_layer3/branch2/conv2c_bn/batchnorm/sub/negate_" precision="FP32" type="Power">
			<data power="1" scale="-1" shift="0"/>
			<input>
				<port id="0">
					<dim>256</dim>
				</port>
			</input>
			<output>
				<port id="1">
					<dim>256</dim>
				</port>
			</output>
		</layer>
		<layer id="289" name="ScaleShift/res_layer3/branch2/conv2c_bn/batchnorm/sub/add_" precision="FP32" type="ScaleShift">
			<input>
				<port id="0">
					<dim>256</dim>
				</port>
			</input>
			<output>
				<port id="3">
					<dim>256</dim>
				</port>
			</output>
			<blobs>
				<weights offset="3108" size="1024"/>
				<biases offset="4217892" size="1024"/>
			</blobs>
		</layer>
		<layer id="290" name="res_layer3/branch2/conv2c_bn/batchnorm/sub/add_/Output_0/Data_/Broadcast/DimData_const" precision="FP32" type="Const">
			<output>
				<port id="1">
					<dim>4</dim>
				</port>
			</output>
			<blobs>
				<custom offset="3092" size="16"/>
			</blobs>
		</layer>
		<layer id="291" name="res_layer3/branch2/conv2c_bn/batchnorm/sub/add_/Output_0/Data_/Broadcast" precision="FP32" type="Reshape">
			<input>
				<port id="0">
					<dim>256</dim>
				</port>
				<port id="1">
					<dim>4</dim>
				</port>
			</input>
			<output>
				<port id="2">
					<dim>1</dim>
					<dim>256</dim>
					<dim>1</dim>
					<dim>1</dim>
				</port>
			</output>
		</layer>
		<layer id="292" name="res_layer3/branch2/conv2c_bn/batchnorm/add_1/Broadcast/" precision="FP32" type="Tile">
			<data axis="0" tiles="400"/>
			<input>
				<port id="0">
					<dim>1</dim>
					<dim>256</dim>
					<dim>1</dim>
					<dim>1</dim>
				</port>
			</input>
			<output>
				<port id="1">
					<dim>400</dim>
					<dim>256</dim>
					<dim>1</dim>
					<dim>1</dim>
				</port>
			</output>
		</layer>
		<layer id="293" name="res_layer3/branch2/conv2c_bn/batchnorm/add_1/Broadcast/2739" precision="FP32" type="Tile">
			<data axis="3" tiles="300"/>
			<input>
				<port id="0">
					<dim>400</dim>
					<dim>256</dim>
					<dim>1</dim>
					<dim>1</dim>
				</port>
			</input>
			<output>
				<port id="1">
					<dim>400</dim>
					<dim>256</dim>
					<dim>1</dim>
					<dim>300</dim>
				</port>
			</output>
		</layer>
		<layer id="294" name="res_layer3/branch2/conv2c_bn/batchnorm/add_1" precision="FP32" type="Eltwise">
			<data operation="sum"/>
			<input>
				<port id="0">
					<dim>400</dim>
					<dim>256</dim>
					<dim>1</dim>
					<dim>300</dim>
				</port>
				<port id="1">
					<dim>400</dim>
					<dim>256</dim>
					<dim>1</dim>
					<dim>300</dim>
				</port>
			</input>
			<output>
				<port id="2">
					<dim>400</dim>
					<dim>256</dim>
					<dim>1</dim>
					<dim>300</dim>
				</port>
			</output>
		</layer>
		<layer id="295" name="res_layer3/plus/add" precision="FP32" type="Eltwise">
			<data operation="sum"/>
			<input>
				<port id="0">
					<dim>400</dim>
					<dim>256</dim>
					<dim>1</dim>
					<dim>300</dim>
				</port>
				<port id="1">
					<dim>400</dim>
					<dim>256</dim>
					<dim>1</dim>
					<dim>300</dim>
				</port>
			</input>
			<output>
				<port id="2">
					<dim>400</dim>
					<dim>256</dim>
					<dim>1</dim>
					<dim>300</dim>
				</port>
			</output>
		</layer>
		<layer id="296" name="res_layer3/plus/final_relu" precision="FP32" type="ReLU">
			<input>
				<port id="0">
					<dim>400</dim>
					<dim>256</dim>
					<dim>1</dim>
					<dim>300</dim>
				</port>
			</input>
			<output>
				<port id="1">
					<dim>400</dim>
					<dim>256</dim>
					<dim>1</dim>
					<dim>300</dim>
				</port>
			</output>
		</layer>
		<layer id="297" name="Reshape_1/shape/Output_0/Data__const" precision="FP32" type="Const">
			<output>
				<port id="1">
					<dim>2</dim>
				</port>
			</output>
			<blobs>
				<custom offset="4218916" size="8"/>
			</blobs>
		</layer>
		<layer id="298" name="Reshape_1" precision="FP32" type="Reshape">
			<input>
				<port id="0">
					<dim>400</dim>
					<dim>256</dim>
					<dim>1</dim>
					<dim>300</dim>
				</port>
				<port id="1">
					<dim>2</dim>
				</port>
			</input>
			<output>
				<port id="2">
					<dim>120000</dim>
					<dim>256</dim>
				</port>
			</output>
		</layer>
		<layer id="299" name="MatMul" precision="FP32" type="FullyConnected">
			<data out-size="5"/>
			<input>
				<port id="0">
					<dim>120000</dim>
					<dim>256</dim>
				</port>
			</input>
			<output>
				<port id="3">
					<dim>120000</dim>
					<dim>5</dim>
				</port>
			</output>
			<blobs>
				<weights offset="4218924" size="5120"/>
				<biases offset="4224044" size="20"/>
			</blobs>
		</layer>
		<layer id="300" name="cnnlogits_rs/shape/Output_0/Data__const" precision="FP32" type="Const">
			<output>
				<port id="1">
					<dim>3</dim>
				</port>
			</output>
			<blobs>
				<custom offset="4224064" size="12"/>
			</blobs>
		</layer>
		<layer id="301" name="cnnlogits_rs" precision="FP32" type="Reshape">
			<input>
				<port id="0">
					<dim>120000</dim>
					<dim>5</dim>
				</port>
				<port id="1">
					<dim>3</dim>
				</port>
			</input>
			<output>
				<port id="2">
					<dim>400</dim>
					<dim>300</dim>
					<dim>5</dim>
				</port>
			</output>
		</layer>
	</layers>
	<edges>
		<edge from-layer="0" from-port="0" to-layer="2" to-port="0"/>
		<edge from-layer="1" from-port="1" to-layer="2" to-port="1"/>
		<edge from-layer="2" from-port="2" to-layer="3" to-port="0"/>
		<edge from-layer="3" from-port="2" to-layer="4" to-port="0"/>
		<edge from-layer="4" from-port="1" to-layer="5" to-port="0"/>
		<edge from-layer="5" from-port="1" to-layer="6" to-port="0"/>
		<edge from-layer="6" from-port="1" to-layer="7" to-port="0"/>
		<edge from-layer="3" from-port="2" to-layer="8" to-port="0"/>
		<edge from-layer="7" from-port="1" to-layer="8" to-port="1"/>
		<edge from-layer="8" from-port="2" to-layer="9" to-port="0"/>
		<edge from-layer="9" from-port="1" to-layer="10" to-port="0"/>
		<edge from-layer="10" from-port="1" to-layer="12" to-port="0"/>
		<edge from-layer="11" from-port="1" to-layer="12" to-port="1"/>
		<edge from-layer="12" from-port="2" to-layer="13" to-port="0"/>
		<edge from-layer="13" from-port="1" to-layer="14" to-port="0"/>
		<edge from-layer="14" from-port="1" to-layer="15" to-port="0"/>
		<edge from-layer="15" from-port="3" to-layer="17" to-port="0"/>
		<edge from-layer="16" from-port="1" to-layer="17" to-port="1"/>
		<edge from-layer="17" from-port="2" to-layer="18" to-port="0"/>
		<edge from-layer="18" from-port="1" to-layer="19" to-port="0"/>
		<edge from-layer="3" from-port="2" to-layer="20" to-port="0"/>
		<edge from-layer="19" from-port="1" to-layer="20" to-port="1"/>
		<edge from-layer="4" from-port="1" to-layer="22" to-port="0"/>
		<edge from-layer="21" from-port="1" to-layer="22" to-port="1"/>
		<edge from-layer="22" from-port="2" to-layer="23" to-port="0"/>
		<edge from-layer="15" from-port="3" to-layer="23" to-port="1"/>
		<edge from-layer="23" from-port="2" to-layer="24" to-port="0"/>
		<edge from-layer="24" from-port="1" to-layer="25" to-port="0"/>
		<edge from-layer="25" from-port="3" to-layer="27" to-port="0"/>
		<edge from-layer="26" from-port="1" to-layer="27" to-port="1"/>
		<edge from-layer="27" from-port="2" to-layer="28" to-port="0"/>
		<edge from-layer="28" from-port="1" to-layer="29" to-port="0"/>
		<edge from-layer="20" from-port="2" to-layer="30" to-port="0"/>
		<edge from-layer="29" from-port="1" to-layer="30" to-port="1"/>
		<edge from-layer="2" from-port="2" to-layer="31" to-port="0"/>
		<edge from-layer="31" from-port="2" to-layer="32" to-port="0"/>
		<edge from-layer="32" from-port="1" to-layer="33" to-port="0"/>
		<edge from-layer="33" from-port="1" to-layer="34" to-port="0"/>
		<edge from-layer="34" from-port="1" to-layer="35" to-port="0"/>
		<edge from-layer="31" from-port="2" to-layer="36" to-port="0"/>
		<edge from-layer="35" from-port="1" to-layer="36" to-port="1"/>
		<edge from-layer="36" from-port="2" to-layer="37" to-port="0"/>
		<edge from-layer="37" from-port="1" to-layer="38" to-port="0"/>
		<edge from-layer="38" from-port="1" to-layer="40" to-port="0"/>
		<edge from-layer="39" from-port="1" to-layer="40" to-port="1"/>
		<edge from-layer="40" from-port="2" to-layer="41" to-port="0"/>
		<edge from-layer="41" from-port="1" to-layer="42" to-port="0"/>
		<edge from-layer="42" from-port="1" to-layer="43" to-port="0"/>
		<edge from-layer="43" from-port="3" to-layer="45" to-port="0"/>
		<edge from-layer="44" from-port="1" to-layer="45" to-port="1"/>
		<edge from-layer="45" from-port="2" to-layer="46" to-port="0"/>
		<edge from-layer="46" from-port="1" to-layer="47" to-port="0"/>
		<edge from-layer="31" from-port="2" to-layer="48" to-port="0"/>
		<edge from-layer="47" from-port="1" to-layer="48" to-port="1"/>
		<edge from-layer="32" from-port="1" to-layer="50" to-port="0"/>
		<edge from-layer="49" from-port="1" to-layer="50" to-port="1"/>
		<edge from-layer="50" from-port="2" to-layer="51" to-port="0"/>
		<edge from-layer="43" from-port="3" to-layer="51" to-port="1"/>
		<edge from-layer="51" from-port="2" to-layer="52" to-port="0"/>
		<edge from-layer="52" from-port="1" to-layer="53" to-port="0"/>
		<edge from-layer="53" from-port="3" to-layer="55" to-port="0"/>
		<edge from-layer="54" from-port="1" to-layer="55" to-port="1"/>
		<edge from-layer="55" from-port="2" to-layer="56" to-port="0"/>
		<edge from-layer="56" from-port="1" to-layer="57" to-port="0"/>
		<edge from-layer="48" from-port="2" to-layer="58" to-port="0"/>
		<edge from-layer="57" from-port="1" to-layer="58" to-port="1"/>
		<edge from-layer="58" from-port="2" to-layer="59" to-port="0"/>
		<edge from-layer="59" from-port="1" to-layer="60" to-port="0"/>
		<edge from-layer="60" from-port="2" to-layer="61" to-port="0"/>
		<edge from-layer="61" from-port="1" to-layer="62" to-port="0"/>
		<edge from-layer="62" from-port="1" to-layer="63" to-port="0"/>
		<edge from-layer="63" from-port="1" to-layer="64" to-port="0"/>
		<edge from-layer="60" from-port="2" to-layer="65" to-port="0"/>
		<edge from-layer="64" from-port="1" to-layer="65" to-port="1"/>
		<edge from-layer="65" from-port="2" to-layer="66" to-port="0"/>
		<edge from-layer="66" from-port="1" to-layer="67" to-port="0"/>
		<edge from-layer="67" from-port="1" to-layer="69" to-port="0"/>
		<edge from-layer="68" from-port="1" to-layer="69" to-port="1"/>
		<edge from-layer="69" from-port="2" to-layer="70" to-port="0"/>
		<edge from-layer="70" from-port="1" to-layer="71" to-port="0"/>
		<edge from-layer="71" from-port="1" to-layer="72" to-port="0"/>
		<edge from-layer="72" from-port="3" to-layer="74" to-port="0"/>
		<edge from-layer="73" from-port="1" to-layer="74" to-port="1"/>
		<edge from-layer="74" from-port="2" to-layer="75" to-port="0"/>
		<edge from-layer="75" from-port="1" to-layer="76" to-port="0"/>
		<edge from-layer="60" from-port="2" to-layer="77" to-port="0"/>
		<edge from-layer="76" from-port="1" to-layer="77" to-port="1"/>
		<edge from-layer="61" from-port="1" to-layer="79" to-port="0"/>
		<edge from-layer="78" from-port="1" to-layer="79" to-port="1"/>
		<edge from-layer="79" from-port="2" to-layer="80" to-port="0"/>
		<edge from-layer="72" from-port="3" to-layer="80" to-port="1"/>
		<edge from-layer="80" from-port="2" to-layer="81" to-port="0"/>
		<edge from-layer="81" from-port="1" to-layer="82" to-port="0"/>
		<edge from-layer="82" from-port="3" to-layer="84" to-port="0"/>
		<edge from-layer="83" from-port="1" to-layer="84" to-port="1"/>
		<edge from-layer="84" from-port="2" to-layer="85" to-port="0"/>
		<edge from-layer="85" from-port="1" to-layer="86" to-port="0"/>
		<edge from-layer="77" from-port="2" to-layer="87" to-port="0"/>
		<edge from-layer="86" from-port="1" to-layer="87" to-port="1"/>
		<edge from-layer="87" from-port="2" to-layer="88" to-port="0"/>
		<edge from-layer="88" from-port="1" to-layer="89" to-port="0"/>
		<edge from-layer="89" from-port="2" to-layer="90" to-port="0"/>
		<edge from-layer="90" from-port="1" to-layer="91" to-port="0"/>
		<edge from-layer="91" from-port="1" to-layer="92" to-port="0"/>
		<edge from-layer="92" from-port="1" to-layer="93" to-port="0"/>
		<edge from-layer="89" from-port="2" to-layer="94" to-port="0"/>
		<edge from-layer="93" from-port="1" to-layer="94" to-port="1"/>
		<edge from-layer="94" from-port="2" to-layer="95" to-port="0"/>
		<edge from-layer="95" from-port="1" to-layer="96" to-port="0"/>
		<edge from-layer="96" from-port="1" to-layer="98" to-port="0"/>
		<edge from-layer="97" from-port="1" to-layer="98" to-port="1"/>
		<edge from-layer="98" from-port="2" to-layer="99" to-port="0"/>
		<edge from-layer="99" from-port="1" to-layer="100" to-port="0"/>
		<edge from-layer="100" from-port="1" to-layer="101" to-port="0"/>
		<edge from-layer="101" from-port="3" to-layer="103" to-port="0"/>
		<edge from-layer="102" from-port="1" to-layer="103" to-port="1"/>
		<edge from-layer="103" from-port="2" to-layer="104" to-port="0"/>
		<edge from-layer="104" from-port="1" to-layer="105" to-port="0"/>
		<edge from-layer="89" from-port="2" to-layer="106" to-port="0"/>
		<edge from-layer="105" from-port="1" to-layer="106" to-port="1"/>
		<edge from-layer="90" from-port="1" to-layer="108" to-port="0"/>
		<edge from-layer="107" from-port="1" to-layer="108" to-port="1"/>
		<edge from-layer="108" from-port="2" to-layer="109" to-port="0"/>
		<edge from-layer="101" from-port="3" to-layer="109" to-port="1"/>
		<edge from-layer="109" from-port="2" to-layer="110" to-port="0"/>
		<edge from-layer="110" from-port="1" to-layer="111" to-port="0"/>
		<edge from-layer="111" from-port="3" to-layer="113" to-port="0"/>
		<edge from-layer="112" from-port="1" to-layer="113" to-port="1"/>
		<edge from-layer="113" from-port="2" to-layer="114" to-port="0"/>
		<edge from-layer="114" from-port="1" to-layer="115" to-port="0"/>
		<edge from-layer="106" from-port="2" to-layer="116" to-port="0"/>
		<edge from-layer="115" from-port="1" to-layer="116" to-port="1"/>
		<edge from-layer="30" from-port="2" to-layer="117" to-port="0"/>
		<edge from-layer="116" from-port="2" to-layer="117" to-port="1"/>
		<edge from-layer="117" from-port="2" to-layer="118" to-port="0"/>
		<edge from-layer="118" from-port="1" to-layer="119" to-port="0"/>
		<edge from-layer="118" from-port="1" to-layer="120" to-port="0"/>
		<edge from-layer="120" from-port="2" to-layer="121" to-port="0"/>
		<edge from-layer="121" from-port="1" to-layer="122" to-port="0"/>
		<edge from-layer="122" from-port="1" to-layer="123" to-port="0"/>
		<edge from-layer="123" from-port="1" to-layer="124" to-port="0"/>
		<edge from-layer="120" from-port="2" to-layer="125" to-port="0"/>
		<edge from-layer="124" from-port="1" to-layer="125" to-port="1"/>
		<edge from-layer="125" from-port="2" to-layer="126" to-port="0"/>
		<edge from-layer="126" from-port="1" to-layer="127" to-port="0"/>
		<edge from-layer="127" from-port="1" to-layer="129" to-port="0"/>
		<edge from-layer="128" from-port="1" to-layer="129" to-port="1"/>
		<edge from-layer="129" from-port="2" to-layer="130" to-port="0"/>
		<edge from-layer="130" from-port="1" to-layer="131" to-port="0"/>
		<edge from-layer="131" from-port="1" to-layer="132" to-port="0"/>
		<edge from-layer="132" from-port="3" to-layer="134" to-port="0"/>
		<edge from-layer="133" from-port="1" to-layer="134" to-port="1"/>
		<edge from-layer="134" from-port="2" to-layer="135" to-port="0"/>
		<edge from-layer="135" from-port="1" to-layer="136" to-port="0"/>
		<edge from-layer="120" from-port="2" to-layer="137" to-port="0"/>
		<edge from-layer="136" from-port="1" to-layer="137" to-port="1"/>
		<edge from-layer="121" from-port="1" to-layer="139" to-port="0"/>
		<edge from-layer="138" from-port="1" to-layer="139" to-port="1"/>
		<edge from-layer="139" from-port="2" to-layer="140" to-port="0"/>
		<edge from-layer="132" from-port="3" to-layer="140" to-port="1"/>
		<edge from-layer="140" from-port="2" to-layer="141" to-port="0"/>
		<edge from-layer="141" from-port="1" to-layer="142" to-port="0"/>
		<edge from-layer="142" from-port="3" to-layer="144" to-port="0"/>
		<edge from-layer="143" from-port="1" to-layer="144" to-port="1"/>
		<edge from-layer="144" from-port="2" to-layer="145" to-port="0"/>
		<edge from-layer="145" from-port="1" to-layer="146" to-port="0"/>
		<edge from-layer="137" from-port="2" to-layer="147" to-port="0"/>
		<edge from-layer="146" from-port="1" to-layer="147" to-port="1"/>
		<edge from-layer="147" from-port="2" to-layer="148" to-port="0"/>
		<edge from-layer="148" from-port="1" to-layer="149" to-port="0"/>
		<edge from-layer="149" from-port="2" to-layer="150" to-port="0"/>
		<edge from-layer="150" from-port="1" to-layer="151" to-port="0"/>
		<edge from-layer="151" from-port="1" to-layer="152" to-port="0"/>
		<edge from-layer="152" from-port="1" to-layer="153" to-port="0"/>
		<edge from-layer="149" from-port="2" to-layer="154" to-port="0"/>
		<edge from-layer="153" from-port="1" to-layer="154" to-port="1"/>
		<edge from-layer="154" from-port="2" to-layer="155" to-port="0"/>
		<edge from-layer="155" from-port="1" to-layer="156" to-port="0"/>
		<edge from-layer="156" from-port="1" to-layer="158" to-port="0"/>
		<edge from-layer="157" from-port="1" to-layer="158" to-port="1"/>
		<edge from-layer="158" from-port="2" to-layer="159" to-port="0"/>
		<edge from-layer="159" from-port="1" to-layer="160" to-port="0"/>
		<edge from-layer="160" from-port="1" to-layer="161" to-port="0"/>
		<edge from-layer="161" from-port="3" to-layer="163" to-port="0"/>
		<edge from-layer="162" from-port="1" to-layer="163" to-port="1"/>
		<edge from-layer="163" from-port="2" to-layer="164" to-port="0"/>
		<edge from-layer="164" from-port="1" to-layer="165" to-port="0"/>
		<edge from-layer="149" from-port="2" to-layer="166" to-port="0"/>
		<edge from-layer="165" from-port="1" to-layer="166" to-port="1"/>
		<edge from-layer="150" from-port="1" to-layer="168" to-port="0"/>
		<edge from-layer="167" from-port="1" to-layer="168" to-port="1"/>
		<edge from-layer="168" from-port="2" to-layer="169" to-port="0"/>
		<edge from-layer="161" from-port="3" to-layer="169" to-port="1"/>
		<edge from-layer="169" from-port="2" to-layer="170" to-port="0"/>
		<edge from-layer="170" from-port="1" to-layer="171" to-port="0"/>
		<edge from-layer="171" from-port="3" to-layer="173" to-port="0"/>
		<edge from-layer="172" from-port="1" to-layer="173" to-port="1"/>
		<edge from-layer="173" from-port="2" to-layer="174" to-port="0"/>
		<edge from-layer="174" from-port="1" to-layer="175" to-port="0"/>
		<edge from-layer="166" from-port="2" to-layer="176" to-port="0"/>
		<edge from-layer="175" from-port="1" to-layer="176" to-port="1"/>
		<edge from-layer="176" from-port="2" to-layer="177" to-port="0"/>
		<edge from-layer="177" from-port="1" to-layer="178" to-port="0"/>
		<edge from-layer="178" from-port="2" to-layer="179" to-port="0"/>
		<edge from-layer="179" from-port="1" to-layer="180" to-port="0"/>
		<edge from-layer="180" from-port="1" to-layer="181" to-port="0"/>
		<edge from-layer="181" from-port="1" to-layer="182" to-port="0"/>
		<edge from-layer="178" from-port="2" to-layer="183" to-port="0"/>
		<edge from-layer="182" from-port="1" to-layer="183" to-port="1"/>
		<edge from-layer="183" from-port="2" to-layer="184" to-port="0"/>
		<edge from-layer="184" from-port="1" to-layer="185" to-port="0"/>
		<edge from-layer="185" from-port="1" to-layer="187" to-port="0"/>
		<edge from-layer="186" from-port="1" to-layer="187" to-port="1"/>
		<edge from-layer="187" from-port="2" to-layer="188" to-port="0"/>
		<edge from-layer="188" from-port="1" to-layer="189" to-port="0"/>
		<edge from-layer="189" from-port="1" to-layer="190" to-port="0"/>
		<edge from-layer="190" from-port="3" to-layer="192" to-port="0"/>
		<edge from-layer="191" from-port="1" to-layer="192" to-port="1"/>
		<edge from-layer="192" from-port="2" to-layer="193" to-port="0"/>
		<edge from-layer="193" from-port="1" to-layer="194" to-port="0"/>
		<edge from-layer="178" from-port="2" to-layer="195" to-port="0"/>
		<edge from-layer="194" from-port="1" to-layer="195" to-port="1"/>
		<edge from-layer="179" from-port="1" to-layer="197" to-port="0"/>
		<edge from-layer="196" from-port="1" to-layer="197" to-port="1"/>
		<edge from-layer="197" from-port="2" to-layer="198" to-port="0"/>
		<edge from-layer="190" from-port="3" to-layer="198" to-port="1"/>
		<edge from-layer="198" from-port="2" to-layer="199" to-port="0"/>
		<edge from-layer="199" from-port="1" to-layer="200" to-port="0"/>
		<edge from-layer="200" from-port="3" to-layer="202" to-port="0"/>
		<edge from-layer="201" from-port="1" to-layer="202" to-port="1"/>
		<edge from-layer="202" from-port="2" to-layer="203" to-port="0"/>
		<edge from-layer="203" from-port="1" to-layer="204" to-port="0"/>
		<edge from-layer="195" from-port="2" to-layer="205" to-port="0"/>
		<edge from-layer="204" from-port="1" to-layer="205" to-port="1"/>
		<edge from-layer="119" from-port="2" to-layer="206" to-port="0"/>
		<edge from-layer="205" from-port="2" to-layer="206" to-port="1"/>
		<edge from-layer="206" from-port="2" to-layer="207" to-port="0"/>
		<edge from-layer="207" from-port="1" to-layer="208" to-port="0"/>
		<edge from-layer="207" from-port="1" to-layer="209" to-port="0"/>
		<edge from-layer="209" from-port="2" to-layer="210" to-port="0"/>
		<edge from-layer="210" from-port="1" to-layer="211" to-port="0"/>
		<edge from-layer="211" from-port="1" to-layer="212" to-port="0"/>
		<edge from-layer="212" from-port="1" to-layer="213" to-port="0"/>
		<edge from-layer="209" from-port="2" to-layer="214" to-port="0"/>
		<edge from-layer="213" from-port="1" to-layer="214" to-port="1"/>
		<edge from-layer="214" from-port="2" to-layer="215" to-port="0"/>
		<edge from-layer="215" from-port="1" to-layer="216" to-port="0"/>
		<edge from-layer="216" from-port="1" to-layer="218" to-port="0"/>
		<edge from-layer="217" from-port="1" to-layer="218" to-port="1"/>
		<edge from-layer="218" from-port="2" to-layer="219" to-port="0"/>
		<edge from-layer="219" from-port="1" to-layer="220" to-port="0"/>
		<edge from-layer="220" from-port="1" to-layer="221" to-port="0"/>
		<edge from-layer="221" from-port="3" to-layer="223" to-port="0"/>
		<edge from-layer="222" from-port="1" to-layer="223" to-port="1"/>
		<edge from-layer="223" from-port="2" to-layer="224" to-port="0"/>
		<edge from-layer="224" from-port="1" to-layer="225" to-port="0"/>
		<edge from-layer="209" from-port="2" to-layer="226" to-port="0"/>
		<edge from-layer="225" from-port="1" to-layer="226" to-port="1"/>
		<edge from-layer="210" from-port="1" to-layer="228" to-port="0"/>
		<edge from-layer="227" from-port="1" to-layer="228" to-port="1"/>
		<edge from-layer="228" from-port="2" to-layer="229" to-port="0"/>
		<edge from-layer="221" from-port="3" to-layer="229" to-port="1"/>
		<edge from-layer="229" from-port="2" to-layer="230" to-port="0"/>
		<edge from-layer="230" from-port="1" to-layer="231" to-port="0"/>
		<edge from-layer="231" from-port="3" to-layer="233" to-port="0"/>
		<edge from-layer="232" from-port="1" to-layer="233" to-port="1"/>
		<edge from-layer="233" from-port="2" to-layer="234" to-port="0"/>
		<edge from-layer="234" from-port="1" to-layer="235" to-port="0"/>
		<edge from-layer="226" from-port="2" to-layer="236" to-port="0"/>
		<edge from-layer="235" from-port="1" to-layer="236" to-port="1"/>
		<edge from-layer="236" from-port="2" to-layer="237" to-port="0"/>
		<edge from-layer="237" from-port="1" to-layer="238" to-port="0"/>
		<edge from-layer="238" from-port="2" to-layer="239" to-port="0"/>
		<edge from-layer="239" from-port="1" to-layer="240" to-port="0"/>
		<edge from-layer="240" from-port="1" to-layer="241" to-port="0"/>
		<edge from-layer="241" from-port="1" to-layer="242" to-port="0"/>
		<edge from-layer="238" from-port="2" to-layer="243" to-port="0"/>
		<edge from-layer="242" from-port="1" to-layer="243" to-port="1"/>
		<edge from-layer="243" from-port="2" to-layer="244" to-port="0"/>
		<edge from-layer="244" from-port="1" to-layer="245" to-port="0"/>
		<edge from-layer="245" from-port="1" to-layer="247" to-port="0"/>
		<edge from-layer="246" from-port="1" to-layer="247" to-port="1"/>
		<edge from-layer="247" from-port="2" to-layer="248" to-port="0"/>
		<edge from-layer="248" from-port="1" to-layer="249" to-port="0"/>
		<edge from-layer="249" from-port="1" to-layer="250" to-port="0"/>
		<edge from-layer="250" from-port="3" to-layer="252" to-port="0"/>
		<edge from-layer="251" from-port="1" to-layer="252" to-port="1"/>
		<edge from-layer="252" from-port="2" to-layer="253" to-port="0"/>
		<edge from-layer="253" from-port="1" to-layer="254" to-port="0"/>
		<edge from-layer="238" from-port="2" to-layer="255" to-port="0"/>
		<edge from-layer="254" from-port="1" to-layer="255" to-port="1"/>
		<edge from-layer="239" from-port="1" to-layer="257" to-port="0"/>
		<edge from-layer="256" from-port="1" to-layer="257" to-port="1"/>
		<edge from-layer="257" from-port="2" to-layer="258" to-port="0"/>
		<edge from-layer="250" from-port="3" to-layer="258" to-port="1"/>
		<edge from-layer="258" from-port="2" to-layer="259" to-port="0"/>
		<edge from-layer="259" from-port="1" to-layer="260" to-port="0"/>
		<edge from-layer="260" from-port="3" to-layer="262" to-port="0"/>
		<edge from-layer="261" from-port="1" to-layer="262" to-port="1"/>
		<edge from-layer="262" from-port="2" to-layer="263" to-port="0"/>
		<edge from-layer="263" from-port="1" to-layer="264" to-port="0"/>
		<edge from-layer="255" from-port="2" to-layer="265" to-port="0"/>
		<edge from-layer="264" from-port="1" to-layer="265" to-port="1"/>
		<edge from-layer="265" from-port="2" to-layer="266" to-port="0"/>
		<edge from-layer="266" from-port="1" to-layer="267" to-port="0"/>
		<edge from-layer="267" from-port="2" to-layer="268" to-port="0"/>
		<edge from-layer="268" from-port="1" to-layer="269" to-port="0"/>
		<edge from-layer="269" from-port="1" to-layer="270" to-port="0"/>
		<edge from-layer="270" from-port="1" to-layer="271" to-port="0"/>
		<edge from-layer="267" from-port="2" to-layer="272" to-port="0"/>
		<edge from-layer="271" from-port="1" to-layer="272" to-port="1"/>
		<edge from-layer="272" from-port="2" to-layer="273" to-port="0"/>
		<edge from-layer="273" from-port="1" to-layer="274" to-port="0"/>
		<edge from-layer="274" from-port="1" to-layer="276" to-port="0"/>
		<edge from-layer="275" from-port="1" to-layer="276" to-port="1"/>
		<edge from-layer="276" from-port="2" to-layer="277" to-port="0"/>
		<edge from-layer="277" from-port="1" to-layer="278" to-port="0"/>
		<edge from-layer="278" from-port="1" to-layer="279" to-port="0"/>
		<edge from-layer="279" from-port="3" to-layer="281" to-port="0"/>
		<edge from-layer="280" from-port="1" to-layer="281" to-port="1"/>
		<edge from-layer="281" from-port="2" to-layer="282" to-port="0"/>
		<edge from-layer="282" from-port="1" to-layer="283" to-port="0"/>
		<edge from-layer="267" from-port="2" to-layer="284" to-port="0"/>
		<edge from-layer="283" from-port="1" to-layer="284" to-port="1"/>
		<edge from-layer="268" from-port="1" to-layer="286" to-port="0"/>
		<edge from-layer="285" from-port="1" to-layer="286" to-port="1"/>
		<edge from-layer="286" from-port="2" to-layer="287" to-port="0"/>
		<edge from-layer="279" from-port="3" to-layer="287" to-port="1"/>
		<edge from-layer="287" from-port="2" to-layer="288" to-port="0"/>
		<edge from-layer="288" from-port="1" to-layer="289" to-port="0"/>
		<edge from-layer="289" from-port="3" to-layer="291" to-port="0"/>
		<edge from-layer="290" from-port="1" to-layer="291" to-port="1"/>
		<edge from-layer="291" from-port="2" to-layer="292" to-port="0"/>
		<edge from-layer="292" from-port="1" to-layer="293" to-port="0"/>
		<edge from-layer="284" from-port="2" to-layer="294" to-port="0"/>
		<edge from-layer="293" from-port="1" to-layer="294" to-port="1"/>
		<edge from-layer="208" from-port="2" to-layer="295" to-port="0"/>
		<edge from-layer="294" from-port="2" to-layer="295" to-port="1"/>
		<edge from-layer="295" from-port="2" to-layer="296" to-port="0"/>
		<edge from-layer="296" from-port="1" to-layer="298" to-port="0"/>
		<edge from-layer="297" from-port="1" to-layer="298" to-port="1"/>
		<edge from-layer="298" from-port="2" to-layer="299" to-port="0"/>
		<edge from-layer="299" from-port="3" to-layer="301" to-port="0"/>
		<edge from-layer="300" from-port="1" to-layer="301" to-port="1"/>
	</edges>
	<meta_data>
		<MO_version value="2019.1.1-83-g28dfbfd"/>
		<cli_parameters>
			<data_type value="float"/>
			<disable_fusing value="False"/>
			<disable_gfusing value="False"/>
			<disable_nhwc_to_nchw value="False"/>
			<disable_resnet_optimization value="False"/>
			<enable_concat_optimization value="False"/>
			<extensions value="DIR"/>
			<framework value="tf"/>
			<generate_deprecated_IR_V2 value="False"/>
			<input_model value="DIR/frozen_model.pb"/>
			<input_model_is_text value="False"/>
			<keep_shape_ops value="False"/>
			<log_level value="ERROR"/>
			<mean_scale_values value="{}"/>
			<mean_values value="()"/>
			<move_to_preprocess value="False"/>
			<output_dir value="DIR"/>
			<reverse_input_channels value="False"/>
			<scale_values value="()"/>
			<silent value="False"/>
			<version value="False"/>
			<unset unset_cli_parameters="batch, finegrain_fusing, freeze_placeholder_with_value, input, input_checkpoint, input_meta_graph, input_shape, model_name, output, placeholder_shapes, saved_model_dir, saved_model_tags, scale, tensorboard_logdir, tensorflow_custom_layer_libraries, tensorflow_custom_operations_config_update, tensorflow_object_detection_api_pipeline_config, tensorflow_operation_patterns, tensorflow_subgraph_patterns, tensorflow_use_custom_operations_config"/>
		</cli_parameters>
	</meta_data>
</net>
